{"format": "graph-model", "generatedBy": "2.7.0", "convertedBy": "TensorFlow.js Converter v3.13.0", "signature": {"inputs": {"input_5": {"name": "input_5:0", "dtype": "DT_FLOAT", "tensorShape": {"dim": [{"size": "-1"}, {"size": "224"}, {"size": "224"}, {"size": "3"}]}}}, "outputs": {"predictions": {"name": "Identity:0", "dtype": "DT_FLOAT", "tensorShape": {"dim": [{"size": "-1"}, {"size": "94"}]}}}}, "modelTopology": {"node": [{"name": "StatefulPartitionedCall/EfficientNetV1B0/tf.math.reduce_mean_64/Mean/reduction_indices", "op": "Const", "attr": {"value": {"tensor": {"dtype": "DT_INT32", "tensorShape": {"dim": [{"size": "2"}]}}}, "dtype": {"type": "DT_INT32"}}}, {"name": "StatefulPartitionedCall/EfficientNetV1B0/stack_0_block0_se_1_conv/Conv2D/ReadVariableOp", "op": "Const", "attr": {"value": {"tensor": {"dtype": "DT_FLOAT", "tensorShape": {"dim": [{"size": "1"}, {"size": "1"}, {"size": "32"}, {"size": "8"}]}}}, "dtype": {"type": "DT_FLOAT"}}}, {"name": "StatefulPartitionedCall/EfficientNetV1B0/stack_0_block0_se_1_conv/BiasAdd/ReadVariableOp", "op": "Const", "attr": {"value": {"tensor": {"dtype": "DT_FLOAT", "tensorShape": {"dim": [{"size": "8"}]}}}, "dtype": {"type": "DT_FLOAT"}}}, {"name": "StatefulPartitionedCall/EfficientNetV1B0/stack_0_block0_se_2_conv/Conv2D/ReadVariableOp", "op": "Const", "attr": {"value": {"tensor": {"dtype": "DT_FLOAT", "tensorShape": {"dim": [{"size": "1"}, {"size": "1"}, {"size": "8"}, {"size": "32"}]}}}, "dtype": {"type": "DT_FLOAT"}}}, {"name": "StatefulPartitionedCall/EfficientNetV1B0/stack_0_block0_se_2_conv/BiasAdd/ReadVariableOp", "op": "Const", "attr": {"dtype": {"type": "DT_FLOAT"}, "value": {"tensor": {"dtype": "DT_FLOAT", "tensorShape": {"dim": [{"size": "32"}]}}}}}, {"name": "StatefulPartitionedCall/EfficientNetV1B0/tf.math.reduce_mean_65/Mean/reduction_indices", "op": "Const", "attr": {"value": {"tensor": {"dtype": "DT_INT32", "tensorShape": {"dim": [{"size": "2"}]}}}, "dtype": {"type": "DT_INT32"}}}, {"name": "StatefulPartitionedCall/EfficientNetV1B0/stack_1_block0_se_1_conv/Conv2D/ReadVariableOp", "op": "Const", "attr": {"value": {"tensor": {"dtype": "DT_FLOAT", "tensorShape": {"dim": [{"size": "1"}, {"size": "1"}, {"size": "96"}, {"size": "4"}]}}}, "dtype": {"type": "DT_FLOAT"}}}, {"name": "StatefulPartitionedCall/EfficientNetV1B0/stack_1_block0_se_1_conv/BiasAdd/ReadVariableOp", "op": "Const", "attr": {"value": {"tensor": {"dtype": "DT_FLOAT", "tensorShape": {"dim": [{"size": "4"}]}}}, "dtype": {"type": "DT_FLOAT"}}}, {"name": "StatefulPartitionedCall/EfficientNetV1B0/stack_1_block0_se_2_conv/Conv2D/ReadVariableOp", "op": "Const", "attr": {"dtype": {"type": "DT_FLOAT"}, "value": {"tensor": {"dtype": "DT_FLOAT", "tensorShape": {"dim": [{"size": "1"}, {"size": "1"}, {"size": "4"}, {"size": "96"}]}}}}}, {"name": "StatefulPartitionedCall/EfficientNetV1B0/stack_1_block0_se_2_conv/BiasAdd/ReadVariableOp", "op": "Const", "attr": {"dtype": {"type": "DT_FLOAT"}, "value": {"tensor": {"dtype": "DT_FLOAT", "tensorShape": {"dim": [{"size": "96"}]}}}}}, {"name": "StatefulPartitionedCall/EfficientNetV1B0/tf.math.reduce_mean_66/Mean/reduction_indices", "op": "Const", "attr": {"value": {"tensor": {"dtype": "DT_INT32", "tensorShape": {"dim": [{"size": "2"}]}}}, "dtype": {"type": "DT_INT32"}}}, {"name": "StatefulPartitionedCall/EfficientNetV1B0/stack_1_block1_se_1_conv/Conv2D/ReadVariableOp", "op": "Const", "attr": {"value": {"tensor": {"dtype": "DT_FLOAT", "tensorShape": {"dim": [{"size": "1"}, {"size": "1"}, {"size": "144"}, {"size": "6"}]}}}, "dtype": {"type": "DT_FLOAT"}}}, {"name": "StatefulPartitionedCall/EfficientNetV1B0/stack_1_block1_se_1_conv/BiasAdd/ReadVariableOp", "op": "Const", "attr": {"value": {"tensor": {"dtype": "DT_FLOAT", "tensorShape": {"dim": [{"size": "6"}]}}}, "dtype": {"type": "DT_FLOAT"}}}, {"name": "StatefulPartitionedCall/EfficientNetV1B0/stack_1_block1_se_2_conv/Conv2D/ReadVariableOp", "op": "Const", "attr": {"dtype": {"type": "DT_FLOAT"}, "value": {"tensor": {"dtype": "DT_FLOAT", "tensorShape": {"dim": [{"size": "1"}, {"size": "1"}, {"size": "6"}, {"size": "144"}]}}}}}, {"name": "StatefulPartitionedCall/EfficientNetV1B0/stack_1_block1_se_2_conv/BiasAdd/ReadVariableOp", "op": "Const", "attr": {"value": {"tensor": {"dtype": "DT_FLOAT", "tensorShape": {"dim": [{"size": "144"}]}}}, "dtype": {"type": "DT_FLOAT"}}}, {"name": "StatefulPartitionedCall/EfficientNetV1B0/tf.math.reduce_mean_67/Mean/reduction_indices", "op": "Const", "attr": {"value": {"tensor": {"dtype": "DT_INT32", "tensorShape": {"dim": [{"size": "2"}]}}}, "dtype": {"type": "DT_INT32"}}}, {"name": "StatefulPartitionedCall/EfficientNetV1B0/stack_2_block0_se_1_conv/Conv2D/ReadVariableOp", "op": "Const", "attr": {"dtype": {"type": "DT_FLOAT"}, "value": {"tensor": {"dtype": "DT_FLOAT", "tensorShape": {"dim": [{"size": "1"}, {"size": "1"}, {"size": "144"}, {"size": "6"}]}}}}}, {"name": "StatefulPartitionedCall/EfficientNetV1B0/stack_2_block0_se_1_conv/BiasAdd/ReadVariableOp", "op": "Const", "attr": {"dtype": {"type": "DT_FLOAT"}, "value": {"tensor": {"dtype": "DT_FLOAT", "tensorShape": {"dim": [{"size": "6"}]}}}}}, {"name": "StatefulPartitionedCall/EfficientNetV1B0/stack_2_block0_se_2_conv/Conv2D/ReadVariableOp", "op": "Const", "attr": {"value": {"tensor": {"dtype": "DT_FLOAT", "tensorShape": {"dim": [{"size": "1"}, {"size": "1"}, {"size": "6"}, {"size": "144"}]}}}, "dtype": {"type": "DT_FLOAT"}}}, {"name": "StatefulPartitionedCall/EfficientNetV1B0/stack_2_block0_se_2_conv/BiasAdd/ReadVariableOp", "op": "Const", "attr": {"value": {"tensor": {"dtype": "DT_FLOAT", "tensorShape": {"dim": [{"size": "144"}]}}}, "dtype": {"type": "DT_FLOAT"}}}, {"name": "StatefulPartitionedCall/EfficientNetV1B0/tf.math.reduce_mean_68/Mean/reduction_indices", "op": "Const", "attr": {"value": {"tensor": {"dtype": "DT_INT32", "tensorShape": {"dim": [{"size": "2"}]}}}, "dtype": {"type": "DT_INT32"}}}, {"name": "StatefulPartitionedCall/EfficientNetV1B0/stack_2_block1_se_1_conv/Conv2D/ReadVariableOp", "op": "Const", "attr": {"dtype": {"type": "DT_FLOAT"}, "value": {"tensor": {"dtype": "DT_FLOAT", "tensorShape": {"dim": [{"size": "1"}, {"size": "1"}, {"size": "240"}, {"size": "10"}]}}}}}, {"name": "StatefulPartitionedCall/EfficientNetV1B0/stack_2_block1_se_1_conv/BiasAdd/ReadVariableOp", "op": "Const", "attr": {"dtype": {"type": "DT_FLOAT"}, "value": {"tensor": {"dtype": "DT_FLOAT", "tensorShape": {"dim": [{"size": "10"}]}}}}}, {"name": "StatefulPartitionedCall/EfficientNetV1B0/stack_2_block1_se_2_conv/Conv2D/ReadVariableOp", "op": "Const", "attr": {"value": {"tensor": {"dtype": "DT_FLOAT", "tensorShape": {"dim": [{"size": "1"}, {"size": "1"}, {"size": "10"}, {"size": "240"}]}}}, "dtype": {"type": "DT_FLOAT"}}}, {"name": "StatefulPartitionedCall/EfficientNetV1B0/stack_2_block1_se_2_conv/BiasAdd/ReadVariableOp", "op": "Const", "attr": {"dtype": {"type": "DT_FLOAT"}, "value": {"tensor": {"dtype": "DT_FLOAT", "tensorShape": {"dim": [{"size": "240"}]}}}}}, {"name": "StatefulPartitionedCall/EfficientNetV1B0/tf.math.reduce_mean_69/Mean/reduction_indices", "op": "Const", "attr": {"value": {"tensor": {"dtype": "DT_INT32", "tensorShape": {"dim": [{"size": "2"}]}}}, "dtype": {"type": "DT_INT32"}}}, {"name": "StatefulPartitionedCall/EfficientNetV1B0/stack_3_block0_se_1_conv/Conv2D/ReadVariableOp", "op": "Const", "attr": {"value": {"tensor": {"dtype": "DT_FLOAT", "tensorShape": {"dim": [{"size": "1"}, {"size": "1"}, {"size": "240"}, {"size": "10"}]}}}, "dtype": {"type": "DT_FLOAT"}}}, {"name": "StatefulPartitionedCall/EfficientNetV1B0/stack_3_block0_se_1_conv/BiasAdd/ReadVariableOp", "op": "Const", "attr": {"value": {"tensor": {"dtype": "DT_FLOAT", "tensorShape": {"dim": [{"size": "10"}]}}}, "dtype": {"type": "DT_FLOAT"}}}, {"name": "StatefulPartitionedCall/EfficientNetV1B0/stack_3_block0_se_2_conv/Conv2D/ReadVariableOp", "op": "Const", "attr": {"value": {"tensor": {"dtype": "DT_FLOAT", "tensorShape": {"dim": [{"size": "1"}, {"size": "1"}, {"size": "10"}, {"size": "240"}]}}}, "dtype": {"type": "DT_FLOAT"}}}, {"name": "StatefulPartitionedCall/EfficientNetV1B0/stack_3_block0_se_2_conv/BiasAdd/ReadVariableOp", "op": "Const", "attr": {"dtype": {"type": "DT_FLOAT"}, "value": {"tensor": {"dtype": "DT_FLOAT", "tensorShape": {"dim": [{"size": "240"}]}}}}}, {"name": "StatefulPartitionedCall/EfficientNetV1B0/tf.math.reduce_mean_70/Mean/reduction_indices", "op": "Const", "attr": {"value": {"tensor": {"dtype": "DT_INT32", "tensorShape": {"dim": [{"size": "2"}]}}}, "dtype": {"type": "DT_INT32"}}}, {"name": "StatefulPartitionedCall/EfficientNetV1B0/stack_3_block1_se_1_conv/Conv2D/ReadVariableOp", "op": "Const", "attr": {"value": {"tensor": {"dtype": "DT_FLOAT", "tensorShape": {"dim": [{"size": "1"}, {"size": "1"}, {"size": "480"}, {"size": "20"}]}}}, "dtype": {"type": "DT_FLOAT"}}}, {"name": "StatefulPartitionedCall/EfficientNetV1B0/stack_3_block1_se_1_conv/BiasAdd/ReadVariableOp", "op": "Const", "attr": {"dtype": {"type": "DT_FLOAT"}, "value": {"tensor": {"dtype": "DT_FLOAT", "tensorShape": {"dim": [{"size": "20"}]}}}}}, {"name": "StatefulPartitionedCall/EfficientNetV1B0/stack_3_block1_se_2_conv/Conv2D/ReadVariableOp", "op": "Const", "attr": {"value": {"tensor": {"dtype": "DT_FLOAT", "tensorShape": {"dim": [{"size": "1"}, {"size": "1"}, {"size": "20"}, {"size": "480"}]}}}, "dtype": {"type": "DT_FLOAT"}}}, {"name": "StatefulPartitionedCall/EfficientNetV1B0/stack_3_block1_se_2_conv/BiasAdd/ReadVariableOp", "op": "Const", "attr": {"value": {"tensor": {"dtype": "DT_FLOAT", "tensorShape": {"dim": [{"size": "480"}]}}}, "dtype": {"type": "DT_FLOAT"}}}, {"name": "StatefulPartitionedCall/EfficientNetV1B0/tf.math.reduce_mean_71/Mean/reduction_indices", "op": "Const", "attr": {"dtype": {"type": "DT_INT32"}, "value": {"tensor": {"dtype": "DT_INT32", "tensorShape": {"dim": [{"size": "2"}]}}}}}, {"name": "StatefulPartitionedCall/EfficientNetV1B0/stack_3_block2_se_1_conv/Conv2D/ReadVariableOp", "op": "Const", "attr": {"dtype": {"type": "DT_FLOAT"}, "value": {"tensor": {"dtype": "DT_FLOAT", "tensorShape": {"dim": [{"size": "1"}, {"size": "1"}, {"size": "480"}, {"size": "20"}]}}}}}, {"name": "StatefulPartitionedCall/EfficientNetV1B0/stack_3_block2_se_1_conv/BiasAdd/ReadVariableOp", "op": "Const", "attr": {"value": {"tensor": {"dtype": "DT_FLOAT", "tensorShape": {"dim": [{"size": "20"}]}}}, "dtype": {"type": "DT_FLOAT"}}}, {"name": "StatefulPartitionedCall/EfficientNetV1B0/stack_3_block2_se_2_conv/Conv2D/ReadVariableOp", "op": "Const", "attr": {"value": {"tensor": {"dtype": "DT_FLOAT", "tensorShape": {"dim": [{"size": "1"}, {"size": "1"}, {"size": "20"}, {"size": "480"}]}}}, "dtype": {"type": "DT_FLOAT"}}}, {"name": "StatefulPartitionedCall/EfficientNetV1B0/stack_3_block2_se_2_conv/BiasAdd/ReadVariableOp", "op": "Const", "attr": {"dtype": {"type": "DT_FLOAT"}, "value": {"tensor": {"dtype": "DT_FLOAT", "tensorShape": {"dim": [{"size": "480"}]}}}}}, {"name": "StatefulPartitionedCall/EfficientNetV1B0/tf.math.reduce_mean_72/Mean/reduction_indices", "op": "Const", "attr": {"dtype": {"type": "DT_INT32"}, "value": {"tensor": {"dtype": "DT_INT32", "tensorShape": {"dim": [{"size": "2"}]}}}}}, {"name": "StatefulPartitionedCall/EfficientNetV1B0/stack_4_block0_se_1_conv/Conv2D/ReadVariableOp", "op": "Const", "attr": {"value": {"tensor": {"dtype": "DT_FLOAT", "tensorShape": {"dim": [{"size": "1"}, {"size": "1"}, {"size": "480"}, {"size": "20"}]}}}, "dtype": {"type": "DT_FLOAT"}}}, {"name": "StatefulPartitionedCall/EfficientNetV1B0/stack_4_block0_se_1_conv/BiasAdd/ReadVariableOp", "op": "Const", "attr": {"dtype": {"type": "DT_FLOAT"}, "value": {"tensor": {"dtype": "DT_FLOAT", "tensorShape": {"dim": [{"size": "20"}]}}}}}, {"name": "StatefulPartitionedCall/EfficientNetV1B0/stack_4_block0_se_2_conv/Conv2D/ReadVariableOp", "op": "Const", "attr": {"value": {"tensor": {"dtype": "DT_FLOAT", "tensorShape": {"dim": [{"size": "1"}, {"size": "1"}, {"size": "20"}, {"size": "480"}]}}}, "dtype": {"type": "DT_FLOAT"}}}, {"name": "StatefulPartitionedCall/EfficientNetV1B0/stack_4_block0_se_2_conv/BiasAdd/ReadVariableOp", "op": "Const", "attr": {"dtype": {"type": "DT_FLOAT"}, "value": {"tensor": {"dtype": "DT_FLOAT", "tensorShape": {"dim": [{"size": "480"}]}}}}}, {"name": "StatefulPartitionedCall/EfficientNetV1B0/tf.math.reduce_mean_73/Mean/reduction_indices", "op": "Const", "attr": {"value": {"tensor": {"dtype": "DT_INT32", "tensorShape": {"dim": [{"size": "2"}]}}}, "dtype": {"type": "DT_INT32"}}}, {"name": "StatefulPartitionedCall/EfficientNetV1B0/stack_4_block1_se_1_conv/Conv2D/ReadVariableOp", "op": "Const", "attr": {"value": {"tensor": {"dtype": "DT_FLOAT", "tensorShape": {"dim": [{"size": "1"}, {"size": "1"}, {"size": "672"}, {"size": "28"}]}}}, "dtype": {"type": "DT_FLOAT"}}}, {"name": "StatefulPartitionedCall/EfficientNetV1B0/stack_4_block1_se_1_conv/BiasAdd/ReadVariableOp", "op": "Const", "attr": {"value": {"tensor": {"dtype": "DT_FLOAT", "tensorShape": {"dim": [{"size": "28"}]}}}, "dtype": {"type": "DT_FLOAT"}}}, {"name": "StatefulPartitionedCall/EfficientNetV1B0/stack_4_block1_se_2_conv/Conv2D/ReadVariableOp", "op": "Const", "attr": {"dtype": {"type": "DT_FLOAT"}, "value": {"tensor": {"dtype": "DT_FLOAT", "tensorShape": {"dim": [{"size": "1"}, {"size": "1"}, {"size": "28"}, {"size": "672"}]}}}}}, {"name": "StatefulPartitionedCall/EfficientNetV1B0/stack_4_block1_se_2_conv/BiasAdd/ReadVariableOp", "op": "Const", "attr": {"dtype": {"type": "DT_FLOAT"}, "value": {"tensor": {"dtype": "DT_FLOAT", "tensorShape": {"dim": [{"size": "672"}]}}}}}, {"name": "StatefulPartitionedCall/EfficientNetV1B0/tf.math.reduce_mean_74/Mean/reduction_indices", "op": "Const", "attr": {"value": {"tensor": {"dtype": "DT_INT32", "tensorShape": {"dim": [{"size": "2"}]}}}, "dtype": {"type": "DT_INT32"}}}, {"name": "StatefulPartitionedCall/EfficientNetV1B0/stack_4_block2_se_1_conv/Conv2D/ReadVariableOp", "op": "Const", "attr": {"dtype": {"type": "DT_FLOAT"}, "value": {"tensor": {"dtype": "DT_FLOAT", "tensorShape": {"dim": [{"size": "1"}, {"size": "1"}, {"size": "672"}, {"size": "28"}]}}}}}, {"name": "StatefulPartitionedCall/EfficientNetV1B0/stack_4_block2_se_1_conv/BiasAdd/ReadVariableOp", "op": "Const", "attr": {"value": {"tensor": {"dtype": "DT_FLOAT", "tensorShape": {"dim": [{"size": "28"}]}}}, "dtype": {"type": "DT_FLOAT"}}}, {"name": "StatefulPartitionedCall/EfficientNetV1B0/stack_4_block2_se_2_conv/Conv2D/ReadVariableOp", "op": "Const", "attr": {"dtype": {"type": "DT_FLOAT"}, "value": {"tensor": {"dtype": "DT_FLOAT", "tensorShape": {"dim": [{"size": "1"}, {"size": "1"}, {"size": "28"}, {"size": "672"}]}}}}}, {"name": "StatefulPartitionedCall/EfficientNetV1B0/stack_4_block2_se_2_conv/BiasAdd/ReadVariableOp", "op": "Const", "attr": {"dtype": {"type": "DT_FLOAT"}, "value": {"tensor": {"dtype": "DT_FLOAT", "tensorShape": {"dim": [{"size": "672"}]}}}}}, {"name": "StatefulPartitionedCall/EfficientNetV1B0/tf.math.reduce_mean_75/Mean/reduction_indices", "op": "Const", "attr": {"value": {"tensor": {"dtype": "DT_INT32", "tensorShape": {"dim": [{"size": "2"}]}}}, "dtype": {"type": "DT_INT32"}}}, {"name": "StatefulPartitionedCall/EfficientNetV1B0/stack_5_block0_se_1_conv/Conv2D/ReadVariableOp", "op": "Const", "attr": {"dtype": {"type": "DT_FLOAT"}, "value": {"tensor": {"dtype": "DT_FLOAT", "tensorShape": {"dim": [{"size": "1"}, {"size": "1"}, {"size": "672"}, {"size": "28"}]}}}}}, {"name": "StatefulPartitionedCall/EfficientNetV1B0/stack_5_block0_se_1_conv/BiasAdd/ReadVariableOp", "op": "Const", "attr": {"dtype": {"type": "DT_FLOAT"}, "value": {"tensor": {"dtype": "DT_FLOAT", "tensorShape": {"dim": [{"size": "28"}]}}}}}, {"name": "StatefulPartitionedCall/EfficientNetV1B0/stack_5_block0_se_2_conv/Conv2D/ReadVariableOp", "op": "Const", "attr": {"dtype": {"type": "DT_FLOAT"}, "value": {"tensor": {"dtype": "DT_FLOAT", "tensorShape": {"dim": [{"size": "1"}, {"size": "1"}, {"size": "28"}, {"size": "672"}]}}}}}, {"name": "StatefulPartitionedCall/EfficientNetV1B0/stack_5_block0_se_2_conv/BiasAdd/ReadVariableOp", "op": "Const", "attr": {"dtype": {"type": "DT_FLOAT"}, "value": {"tensor": {"dtype": "DT_FLOAT", "tensorShape": {"dim": [{"size": "672"}]}}}}}, {"name": "StatefulPartitionedCall/EfficientNetV1B0/tf.math.reduce_mean_76/Mean/reduction_indices", "op": "Const", "attr": {"dtype": {"type": "DT_INT32"}, "value": {"tensor": {"dtype": "DT_INT32", "tensorShape": {"dim": [{"size": "2"}]}}}}}, {"name": "StatefulPartitionedCall/EfficientNetV1B0/stack_5_block1_se_1_conv/Conv2D/ReadVariableOp", "op": "Const", "attr": {"dtype": {"type": "DT_FLOAT"}, "value": {"tensor": {"dtype": "DT_FLOAT", "tensorShape": {"dim": [{"size": "1"}, {"size": "1"}, {"size": "1152"}, {"size": "48"}]}}}}}, {"name": "StatefulPartitionedCall/EfficientNetV1B0/stack_5_block1_se_1_conv/BiasAdd/ReadVariableOp", "op": "Const", "attr": {"dtype": {"type": "DT_FLOAT"}, "value": {"tensor": {"dtype": "DT_FLOAT", "tensorShape": {"dim": [{"size": "48"}]}}}}}, {"name": "StatefulPartitionedCall/EfficientNetV1B0/stack_5_block1_se_2_conv/Conv2D/ReadVariableOp", "op": "Const", "attr": {"dtype": {"type": "DT_FLOAT"}, "value": {"tensor": {"dtype": "DT_FLOAT", "tensorShape": {"dim": [{"size": "1"}, {"size": "1"}, {"size": "48"}, {"size": "1152"}]}}}}}, {"name": "StatefulPartitionedCall/EfficientNetV1B0/stack_5_block1_se_2_conv/BiasAdd/ReadVariableOp", "op": "Const", "attr": {"dtype": {"type": "DT_FLOAT"}, "value": {"tensor": {"dtype": "DT_FLOAT", "tensorShape": {"dim": [{"size": "1152"}]}}}}}, {"name": "StatefulPartitionedCall/EfficientNetV1B0/tf.math.reduce_mean_77/Mean/reduction_indices", "op": "Const", "attr": {"dtype": {"type": "DT_INT32"}, "value": {"tensor": {"dtype": "DT_INT32", "tensorShape": {"dim": [{"size": "2"}]}}}}}, {"name": "StatefulPartitionedCall/EfficientNetV1B0/stack_5_block2_se_1_conv/Conv2D/ReadVariableOp", "op": "Const", "attr": {"dtype": {"type": "DT_FLOAT"}, "value": {"tensor": {"dtype": "DT_FLOAT", "tensorShape": {"dim": [{"size": "1"}, {"size": "1"}, {"size": "1152"}, {"size": "48"}]}}}}}, {"name": "StatefulPartitionedCall/EfficientNetV1B0/stack_5_block2_se_1_conv/BiasAdd/ReadVariableOp", "op": "Const", "attr": {"dtype": {"type": "DT_FLOAT"}, "value": {"tensor": {"dtype": "DT_FLOAT", "tensorShape": {"dim": [{"size": "48"}]}}}}}, {"name": "StatefulPartitionedCall/EfficientNetV1B0/stack_5_block2_se_2_conv/Conv2D/ReadVariableOp", "op": "Const", "attr": {"dtype": {"type": "DT_FLOAT"}, "value": {"tensor": {"dtype": "DT_FLOAT", "tensorShape": {"dim": [{"size": "1"}, {"size": "1"}, {"size": "48"}, {"size": "1152"}]}}}}}, {"name": "StatefulPartitionedCall/EfficientNetV1B0/stack_5_block2_se_2_conv/BiasAdd/ReadVariableOp", "op": "Const", "attr": {"dtype": {"type": "DT_FLOAT"}, "value": {"tensor": {"dtype": "DT_FLOAT", "tensorShape": {"dim": [{"size": "1152"}]}}}}}, {"name": "StatefulPartitionedCall/EfficientNetV1B0/tf.math.reduce_mean_78/Mean/reduction_indices", "op": "Const", "attr": {"dtype": {"type": "DT_INT32"}, "value": {"tensor": {"dtype": "DT_INT32", "tensorShape": {"dim": [{"size": "2"}]}}}}}, {"name": "StatefulPartitionedCall/EfficientNetV1B0/stack_5_block3_se_1_conv/Conv2D/ReadVariableOp", "op": "Const", "attr": {"dtype": {"type": "DT_FLOAT"}, "value": {"tensor": {"dtype": "DT_FLOAT", "tensorShape": {"dim": [{"size": "1"}, {"size": "1"}, {"size": "1152"}, {"size": "48"}]}}}}}, {"name": "StatefulPartitionedCall/EfficientNetV1B0/stack_5_block3_se_1_conv/BiasAdd/ReadVariableOp", "op": "Const", "attr": {"dtype": {"type": "DT_FLOAT"}, "value": {"tensor": {"dtype": "DT_FLOAT", "tensorShape": {"dim": [{"size": "48"}]}}}}}, {"name": "StatefulPartitionedCall/EfficientNetV1B0/stack_5_block3_se_2_conv/Conv2D/ReadVariableOp", "op": "Const", "attr": {"dtype": {"type": "DT_FLOAT"}, "value": {"tensor": {"dtype": "DT_FLOAT", "tensorShape": {"dim": [{"size": "1"}, {"size": "1"}, {"size": "48"}, {"size": "1152"}]}}}}}, {"name": "StatefulPartitionedCall/EfficientNetV1B0/stack_5_block3_se_2_conv/BiasAdd/ReadVariableOp", "op": "Const", "attr": {"dtype": {"type": "DT_FLOAT"}, "value": {"tensor": {"dtype": "DT_FLOAT", "tensorShape": {"dim": [{"size": "1152"}]}}}}}, {"name": "StatefulPartitionedCall/EfficientNetV1B0/tf.math.reduce_mean_79/Mean/reduction_indices", "op": "Const", "attr": {"dtype": {"type": "DT_INT32"}, "value": {"tensor": {"dtype": "DT_INT32", "tensorShape": {"dim": [{"size": "2"}]}}}}}, {"name": "StatefulPartitionedCall/EfficientNetV1B0/stack_6_block0_se_1_conv/Conv2D/ReadVariableOp", "op": "Const", "attr": {"dtype": {"type": "DT_FLOAT"}, "value": {"tensor": {"dtype": "DT_FLOAT", "tensorShape": {"dim": [{"size": "1"}, {"size": "1"}, {"size": "1152"}, {"size": "48"}]}}}}}, {"name": "StatefulPartitionedCall/EfficientNetV1B0/stack_6_block0_se_1_conv/BiasAdd/ReadVariableOp", "op": "Const", "attr": {"dtype": {"type": "DT_FLOAT"}, "value": {"tensor": {"dtype": "DT_FLOAT", "tensorShape": {"dim": [{"size": "48"}]}}}}}, {"name": "StatefulPartitionedCall/EfficientNetV1B0/stack_6_block0_se_2_conv/Conv2D/ReadVariableOp", "op": "Const", "attr": {"dtype": {"type": "DT_FLOAT"}, "value": {"tensor": {"dtype": "DT_FLOAT", "tensorShape": {"dim": [{"size": "1"}, {"size": "1"}, {"size": "48"}, {"size": "1152"}]}}}}}, {"name": "StatefulPartitionedCall/EfficientNetV1B0/stack_6_block0_se_2_conv/BiasAdd/ReadVariableOp", "op": "Const", "attr": {"dtype": {"type": "DT_FLOAT"}, "value": {"tensor": {"dtype": "DT_FLOAT", "tensorShape": {"dim": [{"size": "1152"}]}}}}}, {"name": "StatefulPartitionedCall/EfficientNetV1B0/avg_pool/Mean/reduction_indices", "op": "Const", "attr": {"dtype": {"type": "DT_INT32"}, "value": {"tensor": {"dtype": "DT_INT32", "tensorShape": {"dim": [{"size": "2"}]}}}}}, {"name": "StatefulPartitionedCall/EfficientNetV1B0/predictions/MatMul/ReadVariableOp", "op": "Const", "attr": {"dtype": {"type": "DT_FLOAT"}, "value": {"tensor": {"dtype": "DT_FLOAT", "tensorShape": {"dim": [{"size": "1280"}, {"size": "94"}]}}}}}, {"name": "StatefulPartitionedCall/EfficientNetV1B0/predictions/BiasAdd/ReadVariableOp", "op": "Const", "attr": {"dtype": {"type": "DT_FLOAT"}, "value": {"tensor": {"dtype": "DT_FLOAT", "tensorShape": {"dim": [{"size": "94"}]}}}}}, {"name": "input_5", "op": "Placeholder", "attr": {"shape": {"shape": {"dim": [{"size": "-1"}, {"size": "224"}, {"size": "224"}, {"size": "3"}]}}, "dtype": {"type": "DT_FLOAT"}}}, {"name": "StatefulPartitionedCall/EfficientNetV1B0/stem_conv/Conv2D_weights", "op": "Const", "attr": {"dtype": {"type": "DT_FLOAT"}, "value": {"tensor": {"dtype": "DT_FLOAT", "tensorShape": {"dim": [{"size": "3"}, {"size": "3"}, {"size": "3"}, {"size": "32"}]}}}}}, {"name": "StatefulPartitionedCall/EfficientNetV1B0/post_conv/Conv2D_weights", "op": "Const", "attr": {"dtype": {"type": "DT_FLOAT"}, "value": {"tensor": {"dtype": "DT_FLOAT", "tensorShape": {"dim": [{"size": "1"}, {"size": "1"}, {"size": "320"}, {"size": "1280"}]}}}}}, {"name": "StatefulPartitionedCall/EfficientNetV1B0/stem_conv/Conv2D_bn_offset", "op": "Const", "attr": {"value": {"tensor": {"dtype": "DT_FLOAT", "tensorShape": {"dim": [{"size": "32"}]}}}, "dtype": {"type": "DT_FLOAT"}}}, {"name": "StatefulPartitionedCall/EfficientNetV1B0/stack_0_block0_MB_dw_/depthwise_weights", "op": "Const", "attr": {"dtype": {"type": "DT_FLOAT"}, "value": {"tensor": {"dtype": "DT_FLOAT", "tensorShape": {"dim": [{"size": "3"}, {"size": "3"}, {"size": "32"}, {"size": "1"}]}}}}}, {"name": "StatefulPartitionedCall/EfficientNetV1B0/stack_0_block0_MB_dw_/depthwise_bn_offset", "op": "Const", "attr": {"dtype": {"type": "DT_FLOAT"}, "value": {"tensor": {"dtype": "DT_FLOAT", "tensorShape": {"dim": [{"size": "32"}]}}}}}, {"name": "StatefulPartitionedCall/EfficientNetV1B0/stack_5_block2_MB_pw_conv/Conv2D_bn_offset", "op": "Const", "attr": {"dtype": {"type": "DT_FLOAT"}, "value": {"tensor": {"dtype": "DT_FLOAT", "tensorShape": {"dim": [{"size": "192"}]}}}}}, {"name": "StatefulPartitionedCall/EfficientNetV1B0/stack_0_block0_MB_pw_conv/Conv2D_weights", "op": "Const", "attr": {"dtype": {"type": "DT_FLOAT"}, "value": {"tensor": {"dtype": "DT_FLOAT", "tensorShape": {"dim": [{"size": "1"}, {"size": "1"}, {"size": "32"}, {"size": "16"}]}}}}}, {"name": "StatefulPartitionedCall/EfficientNetV1B0/stack_0_block0_MB_pw_conv/Conv2D_bn_offset", "op": "Const", "attr": {"dtype": {"type": "DT_FLOAT"}, "value": {"tensor": {"dtype": "DT_FLOAT", "tensorShape": {"dim": [{"size": "16"}]}}}}}, {"name": "StatefulPartitionedCall/EfficientNetV1B0/stack_1_block0_sortcut_conv/Conv2D_weights", "op": "Const", "attr": {"dtype": {"type": "DT_FLOAT"}, "value": {"tensor": {"dtype": "DT_FLOAT", "tensorShape": {"dim": [{"size": "1"}, {"size": "1"}, {"size": "16"}, {"size": "96"}]}}}}}, {"name": "StatefulPartitionedCall/EfficientNetV1B0/stack_5_block3_sortcut_conv/Conv2D_weights", "op": "Const", "attr": {"dtype": {"type": "DT_FLOAT"}, "value": {"tensor": {"dtype": "DT_FLOAT", "tensorShape": {"dim": [{"size": "1"}, {"size": "1"}, {"size": "192"}, {"size": "1152"}]}}}}}, {"name": "StatefulPartitionedCall/EfficientNetV1B0/stack_1_block0_sortcut_conv/Conv2D_bn_offset", "op": "Const", "attr": {"dtype": {"type": "DT_FLOAT"}, "value": {"tensor": {"dtype": "DT_FLOAT", "tensorShape": {"dim": [{"size": "96"}]}}}}}, {"name": "StatefulPartitionedCall/EfficientNetV1B0/stack_1_block0_MB_dw_/depthwise_weights", "op": "Const", "attr": {"value": {"tensor": {"dtype": "DT_FLOAT", "tensorShape": {"dim": [{"size": "3"}, {"size": "3"}, {"size": "96"}, {"size": "1"}]}}}, "dtype": {"type": "DT_FLOAT"}}}, {"name": "StatefulPartitionedCall/EfficientNetV1B0/stack_1_block0_MB_dw_/depthwise_bn_offset", "op": "Const", "attr": {"dtype": {"type": "DT_FLOAT"}, "value": {"tensor": {"dtype": "DT_FLOAT", "tensorShape": {"dim": [{"size": "96"}]}}}}}, {"name": "StatefulPartitionedCall/EfficientNetV1B0/stack_5_block3_sortcut_conv/Conv2D_bn_offset", "op": "Const", "attr": {"dtype": {"type": "DT_FLOAT"}, "value": {"tensor": {"dtype": "DT_FLOAT", "tensorShape": {"dim": [{"size": "1152"}]}}}}}, {"name": "StatefulPartitionedCall/EfficientNetV1B0/stack_1_block0_MB_pw_conv/Conv2D_weights", "op": "Const", "attr": {"dtype": {"type": "DT_FLOAT"}, "value": {"tensor": {"dtype": "DT_FLOAT", "tensorShape": {"dim": [{"size": "1"}, {"size": "1"}, {"size": "96"}, {"size": "24"}]}}}}}, {"name": "StatefulPartitionedCall/EfficientNetV1B0/stack_1_block0_MB_pw_conv/Conv2D_bn_offset", "op": "Const", "attr": {"dtype": {"type": "DT_FLOAT"}, "value": {"tensor": {"dtype": "DT_FLOAT", "tensorShape": {"dim": [{"size": "24"}]}}}}}, {"name": "StatefulPartitionedCall/EfficientNetV1B0/stack_1_block1_sortcut_conv/Conv2D_weights", "op": "Const", "attr": {"dtype": {"type": "DT_FLOAT"}, "value": {"tensor": {"dtype": "DT_FLOAT", "tensorShape": {"dim": [{"size": "1"}, {"size": "1"}, {"size": "24"}, {"size": "144"}]}}}}}, {"name": "StatefulPartitionedCall/EfficientNetV1B0/stack_1_block1_sortcut_conv/Conv2D_bn_offset", "op": "Const", "attr": {"dtype": {"type": "DT_FLOAT"}, "value": {"tensor": {"dtype": "DT_FLOAT", "tensorShape": {"dim": [{"size": "144"}]}}}}}, {"name": "StatefulPartitionedCall/EfficientNetV1B0/stack_1_block1_MB_dw_/depthwise_weights", "op": "Const", "attr": {"dtype": {"type": "DT_FLOAT"}, "value": {"tensor": {"dtype": "DT_FLOAT", "tensorShape": {"dim": [{"size": "3"}, {"size": "3"}, {"size": "144"}, {"size": "1"}]}}}}}, {"name": "StatefulPartitionedCall/EfficientNetV1B0/stack_1_block1_MB_dw_/depthwise_bn_offset", "op": "Const", "attr": {"dtype": {"type": "DT_FLOAT"}, "value": {"tensor": {"dtype": "DT_FLOAT", "tensorShape": {"dim": [{"size": "144"}]}}}}}, {"name": "StatefulPartitionedCall/EfficientNetV1B0/stack_5_block3_MB_dw_/depthwise_weights", "op": "Const", "attr": {"dtype": {"type": "DT_FLOAT"}, "value": {"tensor": {"dtype": "DT_FLOAT", "tensorShape": {"dim": [{"size": "5"}, {"size": "5"}, {"size": "1152"}, {"size": "1"}]}}}}}, {"name": "StatefulPartitionedCall/EfficientNetV1B0/stack_1_block1_MB_pw_conv/Conv2D_weights", "op": "Const", "attr": {"dtype": {"type": "DT_FLOAT"}, "value": {"tensor": {"dtype": "DT_FLOAT", "tensorShape": {"dim": [{"size": "1"}, {"size": "1"}, {"size": "144"}, {"size": "24"}]}}}}}, {"name": "StatefulPartitionedCall/EfficientNetV1B0/stack_1_block1_MB_pw_conv/Conv2D_bn_offset", "op": "Const", "attr": {"dtype": {"type": "DT_FLOAT"}, "value": {"tensor": {"dtype": "DT_FLOAT", "tensorShape": {"dim": [{"size": "24"}]}}}}}, {"name": "StatefulPartitionedCall/EfficientNetV1B0/stack_2_block0_sortcut_conv/Conv2D_weights", "op": "Const", "attr": {"dtype": {"type": "DT_FLOAT"}, "value": {"tensor": {"dtype": "DT_FLOAT", "tensorShape": {"dim": [{"size": "1"}, {"size": "1"}, {"size": "24"}, {"size": "144"}]}}}}}, {"name": "StatefulPartitionedCall/EfficientNetV1B0/stack_5_block3_MB_dw_/depthwise_bn_offset", "op": "Const", "attr": {"dtype": {"type": "DT_FLOAT"}, "value": {"tensor": {"dtype": "DT_FLOAT", "tensorShape": {"dim": [{"size": "1152"}]}}}}}, {"name": "StatefulPartitionedCall/EfficientNetV1B0/stack_2_block0_sortcut_conv/Conv2D_bn_offset", "op": "Const", "attr": {"dtype": {"type": "DT_FLOAT"}, "value": {"tensor": {"dtype": "DT_FLOAT", "tensorShape": {"dim": [{"size": "144"}]}}}}}, {"name": "StatefulPartitionedCall/EfficientNetV1B0/stack_2_block0_MB_dw_/depthwise_weights", "op": "Const", "attr": {"dtype": {"type": "DT_FLOAT"}, "value": {"tensor": {"dtype": "DT_FLOAT", "tensorShape": {"dim": [{"size": "5"}, {"size": "5"}, {"size": "144"}, {"size": "1"}]}}}}}, {"name": "StatefulPartitionedCall/EfficientNetV1B0/stack_2_block0_MB_dw_/depthwise_bn_offset", "op": "Const", "attr": {"dtype": {"type": "DT_FLOAT"}, "value": {"tensor": {"dtype": "DT_FLOAT", "tensorShape": {"dim": [{"size": "144"}]}}}}}, {"name": "StatefulPartitionedCall/EfficientNetV1B0/stack_2_block0_MB_pw_conv/Conv2D_weights", "op": "Const", "attr": {"dtype": {"type": "DT_FLOAT"}, "value": {"tensor": {"dtype": "DT_FLOAT", "tensorShape": {"dim": [{"size": "1"}, {"size": "1"}, {"size": "144"}, {"size": "40"}]}}}}}, {"name": "StatefulPartitionedCall/EfficientNetV1B0/stack_2_block0_MB_pw_conv/Conv2D_bn_offset", "op": "Const", "attr": {"dtype": {"type": "DT_FLOAT"}, "value": {"tensor": {"dtype": "DT_FLOAT", "tensorShape": {"dim": [{"size": "40"}]}}}}}, {"name": "StatefulPartitionedCall/EfficientNetV1B0/stack_2_block1_sortcut_conv/Conv2D_weights", "op": "Const", "attr": {"dtype": {"type": "DT_FLOAT"}, "value": {"tensor": {"dtype": "DT_FLOAT", "tensorShape": {"dim": [{"size": "1"}, {"size": "1"}, {"size": "40"}, {"size": "240"}]}}}}}, {"name": "StatefulPartitionedCall/EfficientNetV1B0/stack_2_block1_sortcut_conv/Conv2D_bn_offset", "op": "Const", "attr": {"dtype": {"type": "DT_FLOAT"}, "value": {"tensor": {"dtype": "DT_FLOAT", "tensorShape": {"dim": [{"size": "240"}]}}}}}, {"name": "StatefulPartitionedCall/EfficientNetV1B0/stack_2_block1_MB_dw_/depthwise_weights", "op": "Const", "attr": {"dtype": {"type": "DT_FLOAT"}, "value": {"tensor": {"dtype": "DT_FLOAT", "tensorShape": {"dim": [{"size": "5"}, {"size": "5"}, {"size": "240"}, {"size": "1"}]}}}}}, {"name": "StatefulPartitionedCall/EfficientNetV1B0/stack_2_block1_MB_dw_/depthwise_bn_offset", "op": "Const", "attr": {"dtype": {"type": "DT_FLOAT"}, "value": {"tensor": {"dtype": "DT_FLOAT", "tensorShape": {"dim": [{"size": "240"}]}}}}}, {"name": "StatefulPartitionedCall/EfficientNetV1B0/post_conv/Conv2D_bn_offset", "op": "Const", "attr": {"value": {"tensor": {"dtype": "DT_FLOAT", "tensorShape": {"dim": [{"size": "1280"}]}}}, "dtype": {"type": "DT_FLOAT"}}}, {"name": "StatefulPartitionedCall/EfficientNetV1B0/stack_2_block1_MB_pw_conv/Conv2D_weights", "op": "Const", "attr": {"dtype": {"type": "DT_FLOAT"}, "value": {"tensor": {"dtype": "DT_FLOAT", "tensorShape": {"dim": [{"size": "1"}, {"size": "1"}, {"size": "240"}, {"size": "40"}]}}}}}, {"name": "StatefulPartitionedCall/EfficientNetV1B0/stack_2_block1_MB_pw_conv/Conv2D_bn_offset", "op": "Const", "attr": {"value": {"tensor": {"dtype": "DT_FLOAT", "tensorShape": {"dim": [{"size": "40"}]}}}, "dtype": {"type": "DT_FLOAT"}}}, {"name": "StatefulPartitionedCall/EfficientNetV1B0/stack_3_block0_sortcut_conv/Conv2D_weights", "op": "Const", "attr": {"value": {"tensor": {"dtype": "DT_FLOAT", "tensorShape": {"dim": [{"size": "1"}, {"size": "1"}, {"size": "40"}, {"size": "240"}]}}}, "dtype": {"type": "DT_FLOAT"}}}, {"name": "StatefulPartitionedCall/EfficientNetV1B0/stack_3_block0_sortcut_conv/Conv2D_bn_offset", "op": "Const", "attr": {"value": {"tensor": {"dtype": "DT_FLOAT", "tensorShape": {"dim": [{"size": "240"}]}}}, "dtype": {"type": "DT_FLOAT"}}}, {"name": "StatefulPartitionedCall/EfficientNetV1B0/stack_3_block0_MB_dw_/depthwise_weights", "op": "Const", "attr": {"dtype": {"type": "DT_FLOAT"}, "value": {"tensor": {"dtype": "DT_FLOAT", "tensorShape": {"dim": [{"size": "3"}, {"size": "3"}, {"size": "240"}, {"size": "1"}]}}}}}, {"name": "StatefulPartitionedCall/EfficientNetV1B0/stack_3_block0_MB_dw_/depthwise_bn_offset", "op": "Const", "attr": {"dtype": {"type": "DT_FLOAT"}, "value": {"tensor": {"dtype": "DT_FLOAT", "tensorShape": {"dim": [{"size": "240"}]}}}}}, {"name": "StatefulPartitionedCall/EfficientNetV1B0/stack_3_block0_MB_pw_conv/Conv2D_weights", "op": "Const", "attr": {"dtype": {"type": "DT_FLOAT"}, "value": {"tensor": {"dtype": "DT_FLOAT", "tensorShape": {"dim": [{"size": "1"}, {"size": "1"}, {"size": "240"}, {"size": "80"}]}}}}}, {"name": "StatefulPartitionedCall/EfficientNetV1B0/stack_3_block0_MB_pw_conv/Conv2D_bn_offset", "op": "Const", "attr": {"value": {"tensor": {"dtype": "DT_FLOAT", "tensorShape": {"dim": [{"size": "80"}]}}}, "dtype": {"type": "DT_FLOAT"}}}, {"name": "StatefulPartitionedCall/EfficientNetV1B0/stack_3_block1_sortcut_conv/Conv2D_weights", "op": "Const", "attr": {"dtype": {"type": "DT_FLOAT"}, "value": {"tensor": {"dtype": "DT_FLOAT", "tensorShape": {"dim": [{"size": "1"}, {"size": "1"}, {"size": "80"}, {"size": "480"}]}}}}}, {"name": "StatefulPartitionedCall/EfficientNetV1B0/stack_3_block1_sortcut_conv/Conv2D_bn_offset", "op": "Const", "attr": {"value": {"tensor": {"dtype": "DT_FLOAT", "tensorShape": {"dim": [{"size": "480"}]}}}, "dtype": {"type": "DT_FLOAT"}}}, {"name": "StatefulPartitionedCall/EfficientNetV1B0/stack_3_block1_MB_dw_/depthwise_weights", "op": "Const", "attr": {"dtype": {"type": "DT_FLOAT"}, "value": {"tensor": {"dtype": "DT_FLOAT", "tensorShape": {"dim": [{"size": "3"}, {"size": "3"}, {"size": "480"}, {"size": "1"}]}}}}}, {"name": "StatefulPartitionedCall/EfficientNetV1B0/stack_3_block1_MB_dw_/depthwise_bn_offset", "op": "Const", "attr": {"dtype": {"type": "DT_FLOAT"}, "value": {"tensor": {"dtype": "DT_FLOAT", "tensorShape": {"dim": [{"size": "480"}]}}}}}, {"name": "StatefulPartitionedCall/EfficientNetV1B0/stack_5_block3_MB_pw_conv/Conv2D_weights", "op": "Const", "attr": {"value": {"tensor": {"dtype": "DT_FLOAT", "tensorShape": {"dim": [{"size": "1"}, {"size": "1"}, {"size": "1152"}, {"size": "192"}]}}}, "dtype": {"type": "DT_FLOAT"}}}, {"name": "StatefulPartitionedCall/EfficientNetV1B0/stack_3_block1_MB_pw_conv/Conv2D_weights", "op": "Const", "attr": {"dtype": {"type": "DT_FLOAT"}, "value": {"tensor": {"dtype": "DT_FLOAT", "tensorShape": {"dim": [{"size": "1"}, {"size": "1"}, {"size": "480"}, {"size": "80"}]}}}}}, {"name": "StatefulPartitionedCall/EfficientNetV1B0/stack_5_block3_MB_pw_conv/Conv2D_bn_offset", "op": "Const", "attr": {"value": {"tensor": {"dtype": "DT_FLOAT", "tensorShape": {"dim": [{"size": "192"}]}}}, "dtype": {"type": "DT_FLOAT"}}}, {"name": "StatefulPartitionedCall/EfficientNetV1B0/stack_3_block1_MB_pw_conv/Conv2D_bn_offset", "op": "Const", "attr": {"value": {"tensor": {"dtype": "DT_FLOAT", "tensorShape": {"dim": [{"size": "80"}]}}}, "dtype": {"type": "DT_FLOAT"}}}, {"name": "StatefulPartitionedCall/EfficientNetV1B0/stack_3_block2_sortcut_conv/Conv2D_weights", "op": "Const", "attr": {"dtype": {"type": "DT_FLOAT"}, "value": {"tensor": {"dtype": "DT_FLOAT", "tensorShape": {"dim": [{"size": "1"}, {"size": "1"}, {"size": "80"}, {"size": "480"}]}}}}}, {"name": "StatefulPartitionedCall/EfficientNetV1B0/stack_3_block2_sortcut_conv/Conv2D_bn_offset", "op": "Const", "attr": {"dtype": {"type": "DT_FLOAT"}, "value": {"tensor": {"dtype": "DT_FLOAT", "tensorShape": {"dim": [{"size": "480"}]}}}}}, {"name": "StatefulPartitionedCall/EfficientNetV1B0/stack_3_block2_MB_dw_/depthwise_weights", "op": "Const", "attr": {"value": {"tensor": {"dtype": "DT_FLOAT", "tensorShape": {"dim": [{"size": "3"}, {"size": "3"}, {"size": "480"}, {"size": "1"}]}}}, "dtype": {"type": "DT_FLOAT"}}}, {"name": "StatefulPartitionedCall/EfficientNetV1B0/stack_3_block2_MB_dw_/depthwise_bn_offset", "op": "Const", "attr": {"dtype": {"type": "DT_FLOAT"}, "value": {"tensor": {"dtype": "DT_FLOAT", "tensorShape": {"dim": [{"size": "480"}]}}}}}, {"name": "StatefulPartitionedCall/EfficientNetV1B0/stack_6_block0_sortcut_conv/Conv2D_weights", "op": "Const", "attr": {"dtype": {"type": "DT_FLOAT"}, "value": {"tensor": {"dtype": "DT_FLOAT", "tensorShape": {"dim": [{"size": "1"}, {"size": "1"}, {"size": "192"}, {"size": "1152"}]}}}}}, {"name": "StatefulPartitionedCall/EfficientNetV1B0/stack_3_block2_MB_pw_conv/Conv2D_weights", "op": "Const", "attr": {"value": {"tensor": {"dtype": "DT_FLOAT", "tensorShape": {"dim": [{"size": "1"}, {"size": "1"}, {"size": "480"}, {"size": "80"}]}}}, "dtype": {"type": "DT_FLOAT"}}}, {"name": "StatefulPartitionedCall/EfficientNetV1B0/stack_3_block2_MB_pw_conv/Conv2D_bn_offset", "op": "Const", "attr": {"value": {"tensor": {"dtype": "DT_FLOAT", "tensorShape": {"dim": [{"size": "80"}]}}}, "dtype": {"type": "DT_FLOAT"}}}, {"name": "StatefulPartitionedCall/EfficientNetV1B0/stack_4_block0_sortcut_conv/Conv2D_weights", "op": "Const", "attr": {"value": {"tensor": {"dtype": "DT_FLOAT", "tensorShape": {"dim": [{"size": "1"}, {"size": "1"}, {"size": "80"}, {"size": "480"}]}}}, "dtype": {"type": "DT_FLOAT"}}}, {"name": "StatefulPartitionedCall/EfficientNetV1B0/stack_6_block0_sortcut_conv/Conv2D_bn_offset", "op": "Const", "attr": {"value": {"tensor": {"dtype": "DT_FLOAT", "tensorShape": {"dim": [{"size": "1152"}]}}}, "dtype": {"type": "DT_FLOAT"}}}, {"name": "StatefulPartitionedCall/EfficientNetV1B0/stack_4_block0_sortcut_conv/Conv2D_bn_offset", "op": "Const", "attr": {"value": {"tensor": {"dtype": "DT_FLOAT", "tensorShape": {"dim": [{"size": "480"}]}}}, "dtype": {"type": "DT_FLOAT"}}}, {"name": "StatefulPartitionedCall/EfficientNetV1B0/stack_4_block0_MB_dw_/depthwise_weights", "op": "Const", "attr": {"value": {"tensor": {"dtype": "DT_FLOAT", "tensorShape": {"dim": [{"size": "5"}, {"size": "5"}, {"size": "480"}, {"size": "1"}]}}}, "dtype": {"type": "DT_FLOAT"}}}, {"name": "StatefulPartitionedCall/EfficientNetV1B0/stack_4_block0_MB_dw_/depthwise_bn_offset", "op": "Const", "attr": {"dtype": {"type": "DT_FLOAT"}, "value": {"tensor": {"dtype": "DT_FLOAT", "tensorShape": {"dim": [{"size": "480"}]}}}}}, {"name": "StatefulPartitionedCall/EfficientNetV1B0/stack_4_block0_MB_pw_conv/Conv2D_weights", "op": "Const", "attr": {"value": {"tensor": {"dtype": "DT_FLOAT", "tensorShape": {"dim": [{"size": "1"}, {"size": "1"}, {"size": "480"}, {"size": "112"}]}}}, "dtype": {"type": "DT_FLOAT"}}}, {"name": "StatefulPartitionedCall/EfficientNetV1B0/stack_4_block0_MB_pw_conv/Conv2D_bn_offset", "op": "Const", "attr": {"value": {"tensor": {"dtype": "DT_FLOAT", "tensorShape": {"dim": [{"size": "112"}]}}}, "dtype": {"type": "DT_FLOAT"}}}, {"name": "StatefulPartitionedCall/EfficientNetV1B0/stack_4_block1_sortcut_conv/Conv2D_weights", "op": "Const", "attr": {"value": {"tensor": {"dtype": "DT_FLOAT", "tensorShape": {"dim": [{"size": "1"}, {"size": "1"}, {"size": "112"}, {"size": "672"}]}}}, "dtype": {"type": "DT_FLOAT"}}}, {"name": "StatefulPartitionedCall/EfficientNetV1B0/stack_6_block0_MB_dw_/depthwise_weights", "op": "Const", "attr": {"dtype": {"type": "DT_FLOAT"}, "value": {"tensor": {"dtype": "DT_FLOAT", "tensorShape": {"dim": [{"size": "3"}, {"size": "3"}, {"size": "1152"}, {"size": "1"}]}}}}}, {"name": "StatefulPartitionedCall/EfficientNetV1B0/stack_4_block1_sortcut_conv/Conv2D_bn_offset", "op": "Const", "attr": {"dtype": {"type": "DT_FLOAT"}, "value": {"tensor": {"dtype": "DT_FLOAT", "tensorShape": {"dim": [{"size": "672"}]}}}}}, {"name": "StatefulPartitionedCall/EfficientNetV1B0/stack_4_block1_MB_dw_/depthwise_weights", "op": "Const", "attr": {"value": {"tensor": {"dtype": "DT_FLOAT", "tensorShape": {"dim": [{"size": "5"}, {"size": "5"}, {"size": "672"}, {"size": "1"}]}}}, "dtype": {"type": "DT_FLOAT"}}}, {"name": "StatefulPartitionedCall/EfficientNetV1B0/stack_4_block1_MB_dw_/depthwise_bn_offset", "op": "Const", "attr": {"value": {"tensor": {"dtype": "DT_FLOAT", "tensorShape": {"dim": [{"size": "672"}]}}}, "dtype": {"type": "DT_FLOAT"}}}, {"name": "StatefulPartitionedCall/EfficientNetV1B0/stack_6_block0_MB_dw_/depthwise_bn_offset", "op": "Const", "attr": {"value": {"tensor": {"dtype": "DT_FLOAT", "tensorShape": {"dim": [{"size": "1152"}]}}}, "dtype": {"type": "DT_FLOAT"}}}, {"name": "StatefulPartitionedCall/EfficientNetV1B0/stack_4_block1_MB_pw_conv/Conv2D_weights", "op": "Const", "attr": {"value": {"tensor": {"dtype": "DT_FLOAT", "tensorShape": {"dim": [{"size": "1"}, {"size": "1"}, {"size": "672"}, {"size": "112"}]}}}, "dtype": {"type": "DT_FLOAT"}}}, {"name": "StatefulPartitionedCall/EfficientNetV1B0/stack_4_block1_MB_pw_conv/Conv2D_bn_offset", "op": "Const", "attr": {"dtype": {"type": "DT_FLOAT"}, "value": {"tensor": {"dtype": "DT_FLOAT", "tensorShape": {"dim": [{"size": "112"}]}}}}}, {"name": "StatefulPartitionedCall/EfficientNetV1B0/stack_4_block2_sortcut_conv/Conv2D_weights", "op": "Const", "attr": {"dtype": {"type": "DT_FLOAT"}, "value": {"tensor": {"dtype": "DT_FLOAT", "tensorShape": {"dim": [{"size": "1"}, {"size": "1"}, {"size": "112"}, {"size": "672"}]}}}}}, {"name": "StatefulPartitionedCall/EfficientNetV1B0/stack_4_block2_sortcut_conv/Conv2D_bn_offset", "op": "Const", "attr": {"dtype": {"type": "DT_FLOAT"}, "value": {"tensor": {"dtype": "DT_FLOAT", "tensorShape": {"dim": [{"size": "672"}]}}}}}, {"name": "StatefulPartitionedCall/EfficientNetV1B0/stack_4_block2_MB_dw_/depthwise_weights", "op": "Const", "attr": {"dtype": {"type": "DT_FLOAT"}, "value": {"tensor": {"dtype": "DT_FLOAT", "tensorShape": {"dim": [{"size": "5"}, {"size": "5"}, {"size": "672"}, {"size": "1"}]}}}}}, {"name": "StatefulPartitionedCall/EfficientNetV1B0/stack_4_block2_MB_dw_/depthwise_bn_offset", "op": "Const", "attr": {"value": {"tensor": {"dtype": "DT_FLOAT", "tensorShape": {"dim": [{"size": "672"}]}}}, "dtype": {"type": "DT_FLOAT"}}}, {"name": "StatefulPartitionedCall/EfficientNetV1B0/stack_4_block2_MB_pw_conv/Conv2D_weights", "op": "Const", "attr": {"value": {"tensor": {"dtype": "DT_FLOAT", "tensorShape": {"dim": [{"size": "1"}, {"size": "1"}, {"size": "672"}, {"size": "112"}]}}}, "dtype": {"type": "DT_FLOAT"}}}, {"name": "StatefulPartitionedCall/EfficientNetV1B0/stack_4_block2_MB_pw_conv/Conv2D_bn_offset", "op": "Const", "attr": {"value": {"tensor": {"dtype": "DT_FLOAT", "tensorShape": {"dim": [{"size": "112"}]}}}, "dtype": {"type": "DT_FLOAT"}}}, {"name": "StatefulPartitionedCall/EfficientNetV1B0/stack_5_block0_sortcut_conv/Conv2D_weights", "op": "Const", "attr": {"dtype": {"type": "DT_FLOAT"}, "value": {"tensor": {"dtype": "DT_FLOAT", "tensorShape": {"dim": [{"size": "1"}, {"size": "1"}, {"size": "112"}, {"size": "672"}]}}}}}, {"name": "StatefulPartitionedCall/EfficientNetV1B0/stack_5_block0_sortcut_conv/Conv2D_bn_offset", "op": "Const", "attr": {"value": {"tensor": {"dtype": "DT_FLOAT", "tensorShape": {"dim": [{"size": "672"}]}}}, "dtype": {"type": "DT_FLOAT"}}}, {"name": "StatefulPartitionedCall/EfficientNetV1B0/stack_5_block0_MB_dw_/depthwise_weights", "op": "Const", "attr": {"value": {"tensor": {"dtype": "DT_FLOAT", "tensorShape": {"dim": [{"size": "5"}, {"size": "5"}, {"size": "672"}, {"size": "1"}]}}}, "dtype": {"type": "DT_FLOAT"}}}, {"name": "StatefulPartitionedCall/EfficientNetV1B0/stack_5_block0_MB_dw_/depthwise_bn_offset", "op": "Const", "attr": {"value": {"tensor": {"dtype": "DT_FLOAT", "tensorShape": {"dim": [{"size": "672"}]}}}, "dtype": {"type": "DT_FLOAT"}}}, {"name": "StatefulPartitionedCall/EfficientNetV1B0/stack_5_block0_MB_pw_conv/Conv2D_weights", "op": "Const", "attr": {"dtype": {"type": "DT_FLOAT"}, "value": {"tensor": {"dtype": "DT_FLOAT", "tensorShape": {"dim": [{"size": "1"}, {"size": "1"}, {"size": "672"}, {"size": "192"}]}}}}}, {"name": "StatefulPartitionedCall/EfficientNetV1B0/stack_5_block0_MB_pw_conv/Conv2D_bn_offset", "op": "Const", "attr": {"value": {"tensor": {"dtype": "DT_FLOAT", "tensorShape": {"dim": [{"size": "192"}]}}}, "dtype": {"type": "DT_FLOAT"}}}, {"name": "StatefulPartitionedCall/EfficientNetV1B0/stack_5_block1_sortcut_conv/Conv2D_weights", "op": "Const", "attr": {"value": {"tensor": {"dtype": "DT_FLOAT", "tensorShape": {"dim": [{"size": "1"}, {"size": "1"}, {"size": "192"}, {"size": "1152"}]}}}, "dtype": {"type": "DT_FLOAT"}}}, {"name": "StatefulPartitionedCall/EfficientNetV1B0/stack_5_block1_sortcut_conv/Conv2D_bn_offset", "op": "Const", "attr": {"dtype": {"type": "DT_FLOAT"}, "value": {"tensor": {"dtype": "DT_FLOAT", "tensorShape": {"dim": [{"size": "1152"}]}}}}}, {"name": "StatefulPartitionedCall/EfficientNetV1B0/stack_5_block1_MB_dw_/depthwise_weights", "op": "Const", "attr": {"dtype": {"type": "DT_FLOAT"}, "value": {"tensor": {"dtype": "DT_FLOAT", "tensorShape": {"dim": [{"size": "5"}, {"size": "5"}, {"size": "1152"}, {"size": "1"}]}}}}}, {"name": "StatefulPartitionedCall/EfficientNetV1B0/stack_5_block1_MB_dw_/depthwise_bn_offset", "op": "Const", "attr": {"value": {"tensor": {"dtype": "DT_FLOAT", "tensorShape": {"dim": [{"size": "1152"}]}}}, "dtype": {"type": "DT_FLOAT"}}}, {"name": "StatefulPartitionedCall/EfficientNetV1B0/stack_5_block1_MB_pw_conv/Conv2D_weights", "op": "Const", "attr": {"value": {"tensor": {"dtype": "DT_FLOAT", "tensorShape": {"dim": [{"size": "1"}, {"size": "1"}, {"size": "1152"}, {"size": "192"}]}}}, "dtype": {"type": "DT_FLOAT"}}}, {"name": "StatefulPartitionedCall/EfficientNetV1B0/stack_6_block0_MB_pw_conv/Conv2D_weights", "op": "Const", "attr": {"value": {"tensor": {"dtype": "DT_FLOAT", "tensorShape": {"dim": [{"size": "1"}, {"size": "1"}, {"size": "1152"}, {"size": "320"}]}}}, "dtype": {"type": "DT_FLOAT"}}}, {"name": "StatefulPartitionedCall/EfficientNetV1B0/stack_5_block1_MB_pw_conv/Conv2D_bn_offset", "op": "Const", "attr": {"dtype": {"type": "DT_FLOAT"}, "value": {"tensor": {"dtype": "DT_FLOAT", "tensorShape": {"dim": [{"size": "192"}]}}}}}, {"name": "StatefulPartitionedCall/EfficientNetV1B0/stack_5_block2_sortcut_conv/Conv2D_weights", "op": "Const", "attr": {"dtype": {"type": "DT_FLOAT"}, "value": {"tensor": {"dtype": "DT_FLOAT", "tensorShape": {"dim": [{"size": "1"}, {"size": "1"}, {"size": "192"}, {"size": "1152"}]}}}}}, {"name": "StatefulPartitionedCall/EfficientNetV1B0/stack_5_block2_sortcut_conv/Conv2D_bn_offset", "op": "Const", "attr": {"value": {"tensor": {"dtype": "DT_FLOAT", "tensorShape": {"dim": [{"size": "1152"}]}}}, "dtype": {"type": "DT_FLOAT"}}}, {"name": "StatefulPartitionedCall/EfficientNetV1B0/stack_5_block2_MB_dw_/depthwise_weights", "op": "Const", "attr": {"dtype": {"type": "DT_FLOAT"}, "value": {"tensor": {"dtype": "DT_FLOAT", "tensorShape": {"dim": [{"size": "5"}, {"size": "5"}, {"size": "1152"}, {"size": "1"}]}}}}}, {"name": "StatefulPartitionedCall/EfficientNetV1B0/stack_5_block2_MB_dw_/depthwise_bn_offset", "op": "Const", "attr": {"dtype": {"type": "DT_FLOAT"}, "value": {"tensor": {"dtype": "DT_FLOAT", "tensorShape": {"dim": [{"size": "1152"}]}}}}}, {"name": "StatefulPartitionedCall/EfficientNetV1B0/stack_6_block0_MB_pw_conv/Conv2D_bn_offset", "op": "Const", "attr": {"dtype": {"type": "DT_FLOAT"}, "value": {"tensor": {"dtype": "DT_FLOAT", "tensorShape": {"dim": [{"size": "320"}]}}}}}, {"name": "StatefulPartitionedCall/EfficientNetV1B0/stack_5_block2_MB_pw_conv/Conv2D_weights", "op": "Const", "attr": {"dtype": {"type": "DT_FLOAT"}, "value": {"tensor": {"dtype": "DT_FLOAT", "tensorShape": {"dim": [{"size": "1"}, {"size": "1"}, {"size": "1152"}, {"size": "192"}]}}}}}, {"name": "StatefulPartitionedCall/EfficientNetV1B0/stem_bn/FusedBatchNormV3", "op": "_FusedConv2D", "input": ["input_5", "StatefulPartitionedCall/EfficientNetV1B0/stem_conv/Conv2D_weights", "StatefulPartitionedCall/EfficientNetV1B0/stem_conv/Conv2D_bn_offset"], "device": "/device:CPU:0", "attr": {"use_cudnn_on_gpu": {"b": true}, "fused_ops": {"list": {"s": ["Qmlhc0FkZA=="]}}, "epsilon": {"f": 0.0}, "T": {"type": "DT_FLOAT"}, "padding": {"s": "U0FNRQ=="}, "num_args": {"i": "1"}, "explicit_paddings": {"list": {}}, "strides": {"list": {"i": ["1", "2", "2", "1"]}}, "dilations": {"list": {"i": ["1", "1", "1", "1"]}}, "data_format": {"s": "TkhXQw=="}}}, {"name": "StatefulPartitionedCall/EfficientNetV1B0/stem_swish/Sigmoid", "op": "Sigmoid", "input": ["StatefulPartitionedCall/EfficientNetV1B0/stem_bn/FusedBatchNormV3"], "attr": {"T": {"type": "DT_FLOAT"}}}, {"name": "StatefulPartitionedCall/EfficientNetV1B0/stem_swish/mul", "op": "Mul", "input": ["StatefulPartitionedCall/EfficientNetV1B0/stem_bn/FusedBatchNormV3", "StatefulPartitionedCall/EfficientNetV1B0/stem_swish/Sigmoid"], "attr": {"T": {"type": "DT_FLOAT"}}}, {"name": "StatefulPartitionedCall/EfficientNetV1B0/stack_0_block0_MB_dw_/depthwise", "op": "FusedDepthwiseConv2dNative", "input": ["StatefulPartitionedCall/EfficientNetV1B0/stem_swish/mul", "StatefulPartitionedCall/EfficientNetV1B0/stack_0_block0_MB_dw_/depthwise_weights", "StatefulPartitionedCall/EfficientNetV1B0/stack_0_block0_MB_dw_/depthwise_bn_offset"], "attr": {"padding": {"s": "U0FNRQ=="}, "T": {"type": "DT_FLOAT"}, "fused_ops": {"list": {"s": ["Qmlhc0FkZA=="]}}, "explicit_paddings": {"list": {}}, "num_args": {"i": "1"}, "dilations": {"list": {"i": ["1", "1", "1", "1"]}}, "data_format": {"s": "TkhXQw=="}, "strides": {"list": {"i": ["1", "1", "1", "1"]}}}}, {"name": "StatefulPartitionedCall/EfficientNetV1B0/stack_0_block0_MB_dw_swish/Sigmoid", "op": "Sigmoid", "input": ["StatefulPartitionedCall/EfficientNetV1B0/stack_0_block0_MB_dw_/depthwise"], "attr": {"T": {"type": "DT_FLOAT"}}}, {"name": "StatefulPartitionedCall/EfficientNetV1B0/stack_0_block0_MB_dw_swish/mul", "op": "Mul", "input": ["StatefulPartitionedCall/EfficientNetV1B0/stack_0_block0_MB_dw_/depthwise", "StatefulPartitionedCall/EfficientNetV1B0/stack_0_block0_MB_dw_swish/Sigmoid"], "attr": {"T": {"type": "DT_FLOAT"}}}, {"name": "StatefulPartitionedCall/EfficientNetV1B0/tf.math.reduce_mean_64/Mean", "op": "Mean", "input": ["StatefulPartitionedCall/EfficientNetV1B0/stack_0_block0_MB_dw_swish/mul", "StatefulPartitionedCall/EfficientNetV1B0/tf.math.reduce_mean_64/Mean/reduction_indices"], "attr": {"keep_dims": {"b": true}, "T": {"type": "DT_FLOAT"}, "Tidx": {"type": "DT_INT32"}}}, {"name": "StatefulPartitionedCall/EfficientNetV1B0/stack_0_block0_se_1_conv/BiasAdd", "op": "_FusedConv2D", "input": ["StatefulPartitionedCall/EfficientNetV1B0/tf.math.reduce_mean_64/Mean", "StatefulPartitionedCall/EfficientNetV1B0/stack_0_block0_se_1_conv/Conv2D/ReadVariableOp", "StatefulPartitionedCall/EfficientNetV1B0/stack_0_block0_se_1_conv/BiasAdd/ReadVariableOp"], "device": "/device:CPU:0", "attr": {"num_args": {"i": "1"}, "dilations": {"list": {"i": ["1", "1", "1", "1"]}}, "data_format": {"s": "TkhXQw=="}, "padding": {"s": "VkFMSUQ="}, "fused_ops": {"list": {"s": ["Qmlhc0FkZA=="]}}, "use_cudnn_on_gpu": {"b": true}, "T": {"type": "DT_FLOAT"}, "strides": {"list": {"i": ["1", "1", "1", "1"]}}, "epsilon": {"f": 0.0}, "explicit_paddings": {"list": {}}}}, {"name": "StatefulPartitionedCall/EfficientNetV1B0/activation_128/Sigmoid", "op": "Sigmoid", "input": ["StatefulPartitionedCall/EfficientNetV1B0/stack_0_block0_se_1_conv/BiasAdd"], "attr": {"T": {"type": "DT_FLOAT"}}}, {"name": "StatefulPartitionedCall/EfficientNetV1B0/activation_128/mul", "op": "Mul", "input": ["StatefulPartitionedCall/EfficientNetV1B0/stack_0_block0_se_1_conv/BiasAdd", "StatefulPartitionedCall/EfficientNetV1B0/activation_128/Sigmoid"], "attr": {"T": {"type": "DT_FLOAT"}}}, {"name": "StatefulPartitionedCall/EfficientNetV1B0/stack_0_block0_se_2_conv/BiasAdd", "op": "_FusedConv2D", "input": ["StatefulPartitionedCall/EfficientNetV1B0/activation_128/mul", "StatefulPartitionedCall/EfficientNetV1B0/stack_0_block0_se_2_conv/Conv2D/ReadVariableOp", "StatefulPartitionedCall/EfficientNetV1B0/stack_0_block0_se_2_conv/BiasAdd/ReadVariableOp"], "device": "/device:CPU:0", "attr": {"fused_ops": {"list": {"s": ["Qmlhc0FkZA=="]}}, "use_cudnn_on_gpu": {"b": true}, "epsilon": {"f": 0.0}, "T": {"type": "DT_FLOAT"}, "padding": {"s": "VkFMSUQ="}, "num_args": {"i": "1"}, "strides": {"list": {"i": ["1", "1", "1", "1"]}}, "explicit_paddings": {"list": {}}, "dilations": {"list": {"i": ["1", "1", "1", "1"]}}, "data_format": {"s": "TkhXQw=="}}}, {"name": "StatefulPartitionedCall/EfficientNetV1B0/activation_129/Sigmoid", "op": "Sigmoid", "input": ["StatefulPartitionedCall/EfficientNetV1B0/stack_0_block0_se_2_conv/BiasAdd"], "attr": {"T": {"type": "DT_FLOAT"}}}, {"name": "StatefulPartitionedCall/EfficientNetV1B0/multiply_64/mul", "op": "Mul", "input": ["StatefulPartitionedCall/EfficientNetV1B0/stack_0_block0_MB_dw_swish/mul", "StatefulPartitionedCall/EfficientNetV1B0/activation_129/Sigmoid"], "attr": {"T": {"type": "DT_FLOAT"}}}, {"name": "StatefulPartitionedCall/EfficientNetV1B0/stack_0_block0_MB_pw_bn/FusedBatchNormV3", "op": "_FusedConv2D", "input": ["StatefulPartitionedCall/EfficientNetV1B0/multiply_64/mul", "StatefulPartitionedCall/EfficientNetV1B0/stack_0_block0_MB_pw_conv/Conv2D_weights", "StatefulPartitionedCall/EfficientNetV1B0/stack_0_block0_MB_pw_conv/Conv2D_bn_offset"], "device": "/device:CPU:0", "attr": {"use_cudnn_on_gpu": {"b": true}, "dilations": {"list": {"i": ["1", "1", "1", "1"]}}, "data_format": {"s": "TkhXQw=="}, "fused_ops": {"list": {"s": ["Qmlhc0FkZA=="]}}, "T": {"type": "DT_FLOAT"}, "explicit_paddings": {"list": {}}, "epsilon": {"f": 0.0}, "strides": {"list": {"i": ["1", "1", "1", "1"]}}, "padding": {"s": "VkFMSUQ="}, "num_args": {"i": "1"}}}, {"name": "StatefulPartitionedCall/EfficientNetV1B0/stack_1_block0_sortcut_bn/FusedBatchNormV3", "op": "_FusedConv2D", "input": ["StatefulPartitionedCall/EfficientNetV1B0/stack_0_block0_MB_pw_bn/FusedBatchNormV3", "StatefulPartitionedCall/EfficientNetV1B0/stack_1_block0_sortcut_conv/Conv2D_weights", "StatefulPartitionedCall/EfficientNetV1B0/stack_1_block0_sortcut_conv/Conv2D_bn_offset"], "device": "/device:CPU:0", "attr": {"explicit_paddings": {"list": {}}, "data_format": {"s": "TkhXQw=="}, "dilations": {"list": {"i": ["1", "1", "1", "1"]}}, "T": {"type": "DT_FLOAT"}, "fused_ops": {"list": {"s": ["Qmlhc0FkZA=="]}}, "padding": {"s": "VkFMSUQ="}, "use_cudnn_on_gpu": {"b": true}, "strides": {"list": {"i": ["1", "1", "1", "1"]}}, "epsilon": {"f": 0.0}, "num_args": {"i": "1"}}}, {"name": "StatefulPartitionedCall/EfficientNetV1B0/stack_1_block0_sortcut_swish/Sigmoid", "op": "Sigmoid", "input": ["StatefulPartitionedCall/EfficientNetV1B0/stack_1_block0_sortcut_bn/FusedBatchNormV3"], "attr": {"T": {"type": "DT_FLOAT"}}}, {"name": "StatefulPartitionedCall/EfficientNetV1B0/stack_1_block0_sortcut_swish/mul", "op": "Mul", "input": ["StatefulPartitionedCall/EfficientNetV1B0/stack_1_block0_sortcut_bn/FusedBatchNormV3", "StatefulPartitionedCall/EfficientNetV1B0/stack_1_block0_sortcut_swish/Sigmoid"], "attr": {"T": {"type": "DT_FLOAT"}}}, {"name": "StatefulPartitionedCall/EfficientNetV1B0/stack_1_block0_MB_dw_/depthwise", "op": "FusedDepthwiseConv2dNative", "input": ["StatefulPartitionedCall/EfficientNetV1B0/stack_1_block0_sortcut_swish/mul", "StatefulPartitionedCall/EfficientNetV1B0/stack_1_block0_MB_dw_/depthwise_weights", "StatefulPartitionedCall/EfficientNetV1B0/stack_1_block0_MB_dw_/depthwise_bn_offset"], "attr": {"data_format": {"s": "TkhXQw=="}, "dilations": {"list": {"i": ["1", "1", "1", "1"]}}, "strides": {"list": {"i": ["1", "2", "2", "1"]}}, "T": {"type": "DT_FLOAT"}, "num_args": {"i": "1"}, "fused_ops": {"list": {"s": ["Qmlhc0FkZA=="]}}, "explicit_paddings": {"list": {}}, "padding": {"s": "U0FNRQ=="}}}, {"name": "StatefulPartitionedCall/EfficientNetV1B0/stack_1_block0_MB_dw_swish/Sigmoid", "op": "Sigmoid", "input": ["StatefulPartitionedCall/EfficientNetV1B0/stack_1_block0_MB_dw_/depthwise"], "attr": {"T": {"type": "DT_FLOAT"}}}, {"name": "StatefulPartitionedCall/EfficientNetV1B0/stack_1_block0_MB_dw_swish/mul", "op": "Mul", "input": ["StatefulPartitionedCall/EfficientNetV1B0/stack_1_block0_MB_dw_/depthwise", "StatefulPartitionedCall/EfficientNetV1B0/stack_1_block0_MB_dw_swish/Sigmoid"], "attr": {"T": {"type": "DT_FLOAT"}}}, {"name": "StatefulPartitionedCall/EfficientNetV1B0/tf.math.reduce_mean_65/Mean", "op": "Mean", "input": ["StatefulPartitionedCall/EfficientNetV1B0/stack_1_block0_MB_dw_swish/mul", "StatefulPartitionedCall/EfficientNetV1B0/tf.math.reduce_mean_65/Mean/reduction_indices"], "attr": {"keep_dims": {"b": true}, "T": {"type": "DT_FLOAT"}, "Tidx": {"type": "DT_INT32"}}}, {"name": "StatefulPartitionedCall/EfficientNetV1B0/stack_1_block0_se_1_conv/BiasAdd", "op": "_FusedConv2D", "input": ["StatefulPartitionedCall/EfficientNetV1B0/tf.math.reduce_mean_65/Mean", "StatefulPartitionedCall/EfficientNetV1B0/stack_1_block0_se_1_conv/Conv2D/ReadVariableOp", "StatefulPartitionedCall/EfficientNetV1B0/stack_1_block0_se_1_conv/BiasAdd/ReadVariableOp"], "device": "/device:CPU:0", "attr": {"dilations": {"list": {"i": ["1", "1", "1", "1"]}}, "data_format": {"s": "TkhXQw=="}, "use_cudnn_on_gpu": {"b": true}, "strides": {"list": {"i": ["1", "1", "1", "1"]}}, "padding": {"s": "VkFMSUQ="}, "epsilon": {"f": 0.0}, "T": {"type": "DT_FLOAT"}, "fused_ops": {"list": {"s": ["Qmlhc0FkZA=="]}}, "explicit_paddings": {"list": {}}, "num_args": {"i": "1"}}}, {"name": "StatefulPartitionedCall/EfficientNetV1B0/activation_130/Sigmoid", "op": "Sigmoid", "input": ["StatefulPartitionedCall/EfficientNetV1B0/stack_1_block0_se_1_conv/BiasAdd"], "attr": {"T": {"type": "DT_FLOAT"}}}, {"name": "StatefulPartitionedCall/EfficientNetV1B0/activation_130/mul", "op": "Mul", "input": ["StatefulPartitionedCall/EfficientNetV1B0/stack_1_block0_se_1_conv/BiasAdd", "StatefulPartitionedCall/EfficientNetV1B0/activation_130/Sigmoid"], "attr": {"T": {"type": "DT_FLOAT"}}}, {"name": "StatefulPartitionedCall/EfficientNetV1B0/stack_1_block0_se_2_conv/BiasAdd", "op": "_FusedConv2D", "input": ["StatefulPartitionedCall/EfficientNetV1B0/activation_130/mul", "StatefulPartitionedCall/EfficientNetV1B0/stack_1_block0_se_2_conv/Conv2D/ReadVariableOp", "StatefulPartitionedCall/EfficientNetV1B0/stack_1_block0_se_2_conv/BiasAdd/ReadVariableOp"], "device": "/device:CPU:0", "attr": {"strides": {"list": {"i": ["1", "1", "1", "1"]}}, "epsilon": {"f": 0.0}, "num_args": {"i": "1"}, "explicit_paddings": {"list": {}}, "data_format": {"s": "TkhXQw=="}, "dilations": {"list": {"i": ["1", "1", "1", "1"]}}, "T": {"type": "DT_FLOAT"}, "padding": {"s": "VkFMSUQ="}, "use_cudnn_on_gpu": {"b": true}, "fused_ops": {"list": {"s": ["Qmlhc0FkZA=="]}}}}, {"name": "StatefulPartitionedCall/EfficientNetV1B0/activation_131/Sigmoid", "op": "Sigmoid", "input": ["StatefulPartitionedCall/EfficientNetV1B0/stack_1_block0_se_2_conv/BiasAdd"], "attr": {"T": {"type": "DT_FLOAT"}}}, {"name": "StatefulPartitionedCall/EfficientNetV1B0/multiply_65/mul", "op": "Mul", "input": ["StatefulPartitionedCall/EfficientNetV1B0/stack_1_block0_MB_dw_swish/mul", "StatefulPartitionedCall/EfficientNetV1B0/activation_131/Sigmoid"], "attr": {"T": {"type": "DT_FLOAT"}}}, {"name": "StatefulPartitionedCall/EfficientNetV1B0/stack_1_block0_MB_pw_bn/FusedBatchNormV3", "op": "_FusedConv2D", "input": ["StatefulPartitionedCall/EfficientNetV1B0/multiply_65/mul", "StatefulPartitionedCall/EfficientNetV1B0/stack_1_block0_MB_pw_conv/Conv2D_weights", "StatefulPartitionedCall/EfficientNetV1B0/stack_1_block0_MB_pw_conv/Conv2D_bn_offset"], "device": "/device:CPU:0", "attr": {"use_cudnn_on_gpu": {"b": true}, "dilations": {"list": {"i": ["1", "1", "1", "1"]}}, "T": {"type": "DT_FLOAT"}, "strides": {"list": {"i": ["1", "1", "1", "1"]}}, "padding": {"s": "VkFMSUQ="}, "data_format": {"s": "TkhXQw=="}, "fused_ops": {"list": {"s": ["Qmlhc0FkZA=="]}}, "explicit_paddings": {"list": {}}, "epsilon": {"f": 0.0}, "num_args": {"i": "1"}}}, {"name": "StatefulPartitionedCall/EfficientNetV1B0/stack_1_block1_sortcut_bn/FusedBatchNormV3", "op": "_FusedConv2D", "input": ["StatefulPartitionedCall/EfficientNetV1B0/stack_1_block0_MB_pw_bn/FusedBatchNormV3", "StatefulPartitionedCall/EfficientNetV1B0/stack_1_block1_sortcut_conv/Conv2D_weights", "StatefulPartitionedCall/EfficientNetV1B0/stack_1_block1_sortcut_conv/Conv2D_bn_offset"], "device": "/device:CPU:0", "attr": {"num_args": {"i": "1"}, "dilations": {"list": {"i": ["1", "1", "1", "1"]}}, "data_format": {"s": "TkhXQw=="}, "fused_ops": {"list": {"s": ["Qmlhc0FkZA=="]}}, "use_cudnn_on_gpu": {"b": true}, "T": {"type": "DT_FLOAT"}, "padding": {"s": "VkFMSUQ="}, "strides": {"list": {"i": ["1", "1", "1", "1"]}}, "epsilon": {"f": 0.0}, "explicit_paddings": {"list": {}}}}, {"name": "StatefulPartitionedCall/EfficientNetV1B0/stack_1_block1_sortcut_swish/Sigmoid", "op": "Sigmoid", "input": ["StatefulPartitionedCall/EfficientNetV1B0/stack_1_block1_sortcut_bn/FusedBatchNormV3"], "attr": {"T": {"type": "DT_FLOAT"}}}, {"name": "StatefulPartitionedCall/EfficientNetV1B0/stack_1_block1_sortcut_swish/mul", "op": "Mul", "input": ["StatefulPartitionedCall/EfficientNetV1B0/stack_1_block1_sortcut_bn/FusedBatchNormV3", "StatefulPartitionedCall/EfficientNetV1B0/stack_1_block1_sortcut_swish/Sigmoid"], "attr": {"T": {"type": "DT_FLOAT"}}}, {"name": "StatefulPartitionedCall/EfficientNetV1B0/stack_1_block1_MB_dw_/depthwise", "op": "FusedDepthwiseConv2dNative", "input": ["StatefulPartitionedCall/EfficientNetV1B0/stack_1_block1_sortcut_swish/mul", "StatefulPartitionedCall/EfficientNetV1B0/stack_1_block1_MB_dw_/depthwise_weights", "StatefulPartitionedCall/EfficientNetV1B0/stack_1_block1_MB_dw_/depthwise_bn_offset"], "attr": {"dilations": {"list": {"i": ["1", "1", "1", "1"]}}, "T": {"type": "DT_FLOAT"}, "data_format": {"s": "TkhXQw=="}, "strides": {"list": {"i": ["1", "1", "1", "1"]}}, "fused_ops": {"list": {"s": ["Qmlhc0FkZA=="]}}, "padding": {"s": "U0FNRQ=="}, "num_args": {"i": "1"}, "explicit_paddings": {"list": {}}}}, {"name": "StatefulPartitionedCall/EfficientNetV1B0/stack_1_block1_MB_dw_swish/Sigmoid", "op": "Sigmoid", "input": ["StatefulPartitionedCall/EfficientNetV1B0/stack_1_block1_MB_dw_/depthwise"], "attr": {"T": {"type": "DT_FLOAT"}}}, {"name": "StatefulPartitionedCall/EfficientNetV1B0/stack_1_block1_MB_dw_swish/mul", "op": "Mul", "input": ["StatefulPartitionedCall/EfficientNetV1B0/stack_1_block1_MB_dw_/depthwise", "StatefulPartitionedCall/EfficientNetV1B0/stack_1_block1_MB_dw_swish/Sigmoid"], "attr": {"T": {"type": "DT_FLOAT"}}}, {"name": "StatefulPartitionedCall/EfficientNetV1B0/tf.math.reduce_mean_66/Mean", "op": "Mean", "input": ["StatefulPartitionedCall/EfficientNetV1B0/stack_1_block1_MB_dw_swish/mul", "StatefulPartitionedCall/EfficientNetV1B0/tf.math.reduce_mean_66/Mean/reduction_indices"], "attr": {"T": {"type": "DT_FLOAT"}, "keep_dims": {"b": true}, "Tidx": {"type": "DT_INT32"}}}, {"name": "StatefulPartitionedCall/EfficientNetV1B0/stack_1_block1_se_1_conv/BiasAdd", "op": "_FusedConv2D", "input": ["StatefulPartitionedCall/EfficientNetV1B0/tf.math.reduce_mean_66/Mean", "StatefulPartitionedCall/EfficientNetV1B0/stack_1_block1_se_1_conv/Conv2D/ReadVariableOp", "StatefulPartitionedCall/EfficientNetV1B0/stack_1_block1_se_1_conv/BiasAdd/ReadVariableOp"], "device": "/device:CPU:0", "attr": {"T": {"type": "DT_FLOAT"}, "data_format": {"s": "TkhXQw=="}, "use_cudnn_on_gpu": {"b": true}, "dilations": {"list": {"i": ["1", "1", "1", "1"]}}, "strides": {"list": {"i": ["1", "1", "1", "1"]}}, "fused_ops": {"list": {"s": ["Qmlhc0FkZA=="]}}, "padding": {"s": "VkFMSUQ="}, "num_args": {"i": "1"}, "epsilon": {"f": 0.0}, "explicit_paddings": {"list": {}}}}, {"name": "StatefulPartitionedCall/EfficientNetV1B0/activation_132/Sigmoid", "op": "Sigmoid", "input": ["StatefulPartitionedCall/EfficientNetV1B0/stack_1_block1_se_1_conv/BiasAdd"], "attr": {"T": {"type": "DT_FLOAT"}}}, {"name": "StatefulPartitionedCall/EfficientNetV1B0/activation_132/mul", "op": "Mul", "input": ["StatefulPartitionedCall/EfficientNetV1B0/stack_1_block1_se_1_conv/BiasAdd", "StatefulPartitionedCall/EfficientNetV1B0/activation_132/Sigmoid"], "attr": {"T": {"type": "DT_FLOAT"}}}, {"name": "StatefulPartitionedCall/EfficientNetV1B0/stack_1_block1_se_2_conv/BiasAdd", "op": "_FusedConv2D", "input": ["StatefulPartitionedCall/EfficientNetV1B0/activation_132/mul", "StatefulPartitionedCall/EfficientNetV1B0/stack_1_block1_se_2_conv/Conv2D/ReadVariableOp", "StatefulPartitionedCall/EfficientNetV1B0/stack_1_block1_se_2_conv/BiasAdd/ReadVariableOp"], "device": "/device:CPU:0", "attr": {"fused_ops": {"list": {"s": ["Qmlhc0FkZA=="]}}, "epsilon": {"f": 0.0}, "num_args": {"i": "1"}, "explicit_paddings": {"list": {}}, "strides": {"list": {"i": ["1", "1", "1", "1"]}}, "dilations": {"list": {"i": ["1", "1", "1", "1"]}}, "T": {"type": "DT_FLOAT"}, "data_format": {"s": "TkhXQw=="}, "padding": {"s": "VkFMSUQ="}, "use_cudnn_on_gpu": {"b": true}}}, {"name": "StatefulPartitionedCall/EfficientNetV1B0/activation_133/Sigmoid", "op": "Sigmoid", "input": ["StatefulPartitionedCall/EfficientNetV1B0/stack_1_block1_se_2_conv/BiasAdd"], "attr": {"T": {"type": "DT_FLOAT"}}}, {"name": "StatefulPartitionedCall/EfficientNetV1B0/multiply_66/mul", "op": "Mul", "input": ["StatefulPartitionedCall/EfficientNetV1B0/stack_1_block1_MB_dw_swish/mul", "StatefulPartitionedCall/EfficientNetV1B0/activation_133/Sigmoid"], "attr": {"T": {"type": "DT_FLOAT"}}}, {"name": "StatefulPartitionedCall/EfficientNetV1B0/stack_1_block1_MB_pw_bn/FusedBatchNormV3", "op": "_FusedConv2D", "input": ["StatefulPartitionedCall/EfficientNetV1B0/multiply_66/mul", "StatefulPartitionedCall/EfficientNetV1B0/stack_1_block1_MB_pw_conv/Conv2D_weights", "StatefulPartitionedCall/EfficientNetV1B0/stack_1_block1_MB_pw_conv/Conv2D_bn_offset"], "device": "/device:CPU:0", "attr": {"fused_ops": {"list": {"s": ["Qmlhc0FkZA=="]}}, "padding": {"s": "VkFMSUQ="}, "explicit_paddings": {"list": {}}, "num_args": {"i": "1"}, "epsilon": {"f": 0.0}, "use_cudnn_on_gpu": {"b": true}, "T": {"type": "DT_FLOAT"}, "dilations": {"list": {"i": ["1", "1", "1", "1"]}}, "data_format": {"s": "TkhXQw=="}, "strides": {"list": {"i": ["1", "1", "1", "1"]}}}}, {"name": "StatefulPartitionedCall/EfficientNetV1B0/add_36/add", "op": "AddV2", "input": ["StatefulPartitionedCall/EfficientNetV1B0/stack_1_block0_MB_pw_bn/FusedBatchNormV3", "StatefulPartitionedCall/EfficientNetV1B0/stack_1_block1_MB_pw_bn/FusedBatchNormV3"], "attr": {"T": {"type": "DT_FLOAT"}}}, {"name": "StatefulPartitionedCall/EfficientNetV1B0/stack_2_block0_sortcut_bn/FusedBatchNormV3", "op": "_FusedConv2D", "input": ["StatefulPartitionedCall/EfficientNetV1B0/add_36/add", "StatefulPartitionedCall/EfficientNetV1B0/stack_2_block0_sortcut_conv/Conv2D_weights", "StatefulPartitionedCall/EfficientNetV1B0/stack_2_block0_sortcut_conv/Conv2D_bn_offset"], "device": "/device:CPU:0", "attr": {"strides": {"list": {"i": ["1", "1", "1", "1"]}}, "T": {"type": "DT_FLOAT"}, "use_cudnn_on_gpu": {"b": true}, "data_format": {"s": "TkhXQw=="}, "dilations": {"list": {"i": ["1", "1", "1", "1"]}}, "padding": {"s": "VkFMSUQ="}, "num_args": {"i": "1"}, "fused_ops": {"list": {"s": ["Qmlhc0FkZA=="]}}, "epsilon": {"f": 0.0}, "explicit_paddings": {"list": {}}}}, {"name": "StatefulPartitionedCall/EfficientNetV1B0/stack_2_block0_sortcut_swish/Sigmoid", "op": "Sigmoid", "input": ["StatefulPartitionedCall/EfficientNetV1B0/stack_2_block0_sortcut_bn/FusedBatchNormV3"], "attr": {"T": {"type": "DT_FLOAT"}}}, {"name": "StatefulPartitionedCall/EfficientNetV1B0/stack_2_block0_sortcut_swish/mul", "op": "Mul", "input": ["StatefulPartitionedCall/EfficientNetV1B0/stack_2_block0_sortcut_bn/FusedBatchNormV3", "StatefulPartitionedCall/EfficientNetV1B0/stack_2_block0_sortcut_swish/Sigmoid"], "attr": {"T": {"type": "DT_FLOAT"}}}, {"name": "StatefulPartitionedCall/EfficientNetV1B0/stack_2_block0_MB_dw_/depthwise", "op": "FusedDepthwiseConv2dNative", "input": ["StatefulPartitionedCall/EfficientNetV1B0/stack_2_block0_sortcut_swish/mul", "StatefulPartitionedCall/EfficientNetV1B0/stack_2_block0_MB_dw_/depthwise_weights", "StatefulPartitionedCall/EfficientNetV1B0/stack_2_block0_MB_dw_/depthwise_bn_offset"], "attr": {"num_args": {"i": "1"}, "strides": {"list": {"i": ["1", "2", "2", "1"]}}, "explicit_paddings": {"list": {}}, "dilations": {"list": {"i": ["1", "1", "1", "1"]}}, "data_format": {"s": "TkhXQw=="}, "T": {"type": "DT_FLOAT"}, "padding": {"s": "U0FNRQ=="}, "fused_ops": {"list": {"s": ["Qmlhc0FkZA=="]}}}}, {"name": "StatefulPartitionedCall/EfficientNetV1B0/stack_2_block0_MB_dw_swish/Sigmoid", "op": "Sigmoid", "input": ["StatefulPartitionedCall/EfficientNetV1B0/stack_2_block0_MB_dw_/depthwise"], "attr": {"T": {"type": "DT_FLOAT"}}}, {"name": "StatefulPartitionedCall/EfficientNetV1B0/stack_2_block0_MB_dw_swish/mul", "op": "Mul", "input": ["StatefulPartitionedCall/EfficientNetV1B0/stack_2_block0_MB_dw_/depthwise", "StatefulPartitionedCall/EfficientNetV1B0/stack_2_block0_MB_dw_swish/Sigmoid"], "attr": {"T": {"type": "DT_FLOAT"}}}, {"name": "StatefulPartitionedCall/EfficientNetV1B0/tf.math.reduce_mean_67/Mean", "op": "Mean", "input": ["StatefulPartitionedCall/EfficientNetV1B0/stack_2_block0_MB_dw_swish/mul", "StatefulPartitionedCall/EfficientNetV1B0/tf.math.reduce_mean_67/Mean/reduction_indices"], "attr": {"keep_dims": {"b": true}, "Tidx": {"type": "DT_INT32"}, "T": {"type": "DT_FLOAT"}}}, {"name": "StatefulPartitionedCall/EfficientNetV1B0/stack_2_block0_se_1_conv/BiasAdd", "op": "_FusedConv2D", "input": ["StatefulPartitionedCall/EfficientNetV1B0/tf.math.reduce_mean_67/Mean", "StatefulPartitionedCall/EfficientNetV1B0/stack_2_block0_se_1_conv/Conv2D/ReadVariableOp", "StatefulPartitionedCall/EfficientNetV1B0/stack_2_block0_se_1_conv/BiasAdd/ReadVariableOp"], "device": "/device:CPU:0", "attr": {"explicit_paddings": {"list": {}}, "fused_ops": {"list": {"s": ["Qmlhc0FkZA=="]}}, "strides": {"list": {"i": ["1", "1", "1", "1"]}}, "num_args": {"i": "1"}, "epsilon": {"f": 0.0}, "dilations": {"list": {"i": ["1", "1", "1", "1"]}}, "T": {"type": "DT_FLOAT"}, "padding": {"s": "VkFMSUQ="}, "data_format": {"s": "TkhXQw=="}, "use_cudnn_on_gpu": {"b": true}}}, {"name": "StatefulPartitionedCall/EfficientNetV1B0/activation_134/Sigmoid", "op": "Sigmoid", "input": ["StatefulPartitionedCall/EfficientNetV1B0/stack_2_block0_se_1_conv/BiasAdd"], "attr": {"T": {"type": "DT_FLOAT"}}}, {"name": "StatefulPartitionedCall/EfficientNetV1B0/activation_134/mul", "op": "Mul", "input": ["StatefulPartitionedCall/EfficientNetV1B0/stack_2_block0_se_1_conv/BiasAdd", "StatefulPartitionedCall/EfficientNetV1B0/activation_134/Sigmoid"], "attr": {"T": {"type": "DT_FLOAT"}}}, {"name": "StatefulPartitionedCall/EfficientNetV1B0/stack_2_block0_se_2_conv/BiasAdd", "op": "_FusedConv2D", "input": ["StatefulPartitionedCall/EfficientNetV1B0/activation_134/mul", "StatefulPartitionedCall/EfficientNetV1B0/stack_2_block0_se_2_conv/Conv2D/ReadVariableOp", "StatefulPartitionedCall/EfficientNetV1B0/stack_2_block0_se_2_conv/BiasAdd/ReadVariableOp"], "device": "/device:CPU:0", "attr": {"use_cudnn_on_gpu": {"b": true}, "epsilon": {"f": 0.0}, "fused_ops": {"list": {"s": ["Qmlhc0FkZA=="]}}, "explicit_paddings": {"list": {}}, "strides": {"list": {"i": ["1", "1", "1", "1"]}}, "num_args": {"i": "1"}, "padding": {"s": "VkFMSUQ="}, "data_format": {"s": "TkhXQw=="}, "dilations": {"list": {"i": ["1", "1", "1", "1"]}}, "T": {"type": "DT_FLOAT"}}}, {"name": "StatefulPartitionedCall/EfficientNetV1B0/activation_135/Sigmoid", "op": "Sigmoid", "input": ["StatefulPartitionedCall/EfficientNetV1B0/stack_2_block0_se_2_conv/BiasAdd"], "attr": {"T": {"type": "DT_FLOAT"}}}, {"name": "StatefulPartitionedCall/EfficientNetV1B0/multiply_67/mul", "op": "Mul", "input": ["StatefulPartitionedCall/EfficientNetV1B0/stack_2_block0_MB_dw_swish/mul", "StatefulPartitionedCall/EfficientNetV1B0/activation_135/Sigmoid"], "attr": {"T": {"type": "DT_FLOAT"}}}, {"name": "StatefulPartitionedCall/EfficientNetV1B0/stack_2_block0_MB_pw_bn/FusedBatchNormV3", "op": "_FusedConv2D", "input": ["StatefulPartitionedCall/EfficientNetV1B0/multiply_67/mul", "StatefulPartitionedCall/EfficientNetV1B0/stack_2_block0_MB_pw_conv/Conv2D_weights", "StatefulPartitionedCall/EfficientNetV1B0/stack_2_block0_MB_pw_conv/Conv2D_bn_offset"], "device": "/device:CPU:0", "attr": {"padding": {"s": "VkFMSUQ="}, "T": {"type": "DT_FLOAT"}, "epsilon": {"f": 0.0}, "dilations": {"list": {"i": ["1", "1", "1", "1"]}}, "num_args": {"i": "1"}, "data_format": {"s": "TkhXQw=="}, "use_cudnn_on_gpu": {"b": true}, "strides": {"list": {"i": ["1", "1", "1", "1"]}}, "fused_ops": {"list": {"s": ["Qmlhc0FkZA=="]}}, "explicit_paddings": {"list": {}}}}, {"name": "StatefulPartitionedCall/EfficientNetV1B0/stack_2_block1_sortcut_bn/FusedBatchNormV3", "op": "_FusedConv2D", "input": ["StatefulPartitionedCall/EfficientNetV1B0/stack_2_block0_MB_pw_bn/FusedBatchNormV3", "StatefulPartitionedCall/EfficientNetV1B0/stack_2_block1_sortcut_conv/Conv2D_weights", "StatefulPartitionedCall/EfficientNetV1B0/stack_2_block1_sortcut_conv/Conv2D_bn_offset"], "device": "/device:CPU:0", "attr": {"T": {"type": "DT_FLOAT"}, "strides": {"list": {"i": ["1", "1", "1", "1"]}}, "num_args": {"i": "1"}, "padding": {"s": "VkFMSUQ="}, "dilations": {"list": {"i": ["1", "1", "1", "1"]}}, "epsilon": {"f": 0.0}, "data_format": {"s": "TkhXQw=="}, "fused_ops": {"list": {"s": ["Qmlhc0FkZA=="]}}, "use_cudnn_on_gpu": {"b": true}, "explicit_paddings": {"list": {}}}}, {"name": "StatefulPartitionedCall/EfficientNetV1B0/stack_2_block1_sortcut_swish/Sigmoid", "op": "Sigmoid", "input": ["StatefulPartitionedCall/EfficientNetV1B0/stack_2_block1_sortcut_bn/FusedBatchNormV3"], "attr": {"T": {"type": "DT_FLOAT"}}}, {"name": "StatefulPartitionedCall/EfficientNetV1B0/stack_2_block1_sortcut_swish/mul", "op": "Mul", "input": ["StatefulPartitionedCall/EfficientNetV1B0/stack_2_block1_sortcut_bn/FusedBatchNormV3", "StatefulPartitionedCall/EfficientNetV1B0/stack_2_block1_sortcut_swish/Sigmoid"], "attr": {"T": {"type": "DT_FLOAT"}}}, {"name": "StatefulPartitionedCall/EfficientNetV1B0/stack_2_block1_MB_dw_/depthwise", "op": "FusedDepthwiseConv2dNative", "input": ["StatefulPartitionedCall/EfficientNetV1B0/stack_2_block1_sortcut_swish/mul", "StatefulPartitionedCall/EfficientNetV1B0/stack_2_block1_MB_dw_/depthwise_weights", "StatefulPartitionedCall/EfficientNetV1B0/stack_2_block1_MB_dw_/depthwise_bn_offset"], "attr": {"dilations": {"list": {"i": ["1", "1", "1", "1"]}}, "T": {"type": "DT_FLOAT"}, "padding": {"s": "U0FNRQ=="}, "strides": {"list": {"i": ["1", "1", "1", "1"]}}, "num_args": {"i": "1"}, "fused_ops": {"list": {"s": ["Qmlhc0FkZA=="]}}, "data_format": {"s": "TkhXQw=="}, "explicit_paddings": {"list": {}}}}, {"name": "StatefulPartitionedCall/EfficientNetV1B0/stack_2_block1_MB_dw_swish/Sigmoid", "op": "Sigmoid", "input": ["StatefulPartitionedCall/EfficientNetV1B0/stack_2_block1_MB_dw_/depthwise"], "attr": {"T": {"type": "DT_FLOAT"}}}, {"name": "StatefulPartitionedCall/EfficientNetV1B0/stack_2_block1_MB_dw_swish/mul", "op": "Mul", "input": ["StatefulPartitionedCall/EfficientNetV1B0/stack_2_block1_MB_dw_/depthwise", "StatefulPartitionedCall/EfficientNetV1B0/stack_2_block1_MB_dw_swish/Sigmoid"], "attr": {"T": {"type": "DT_FLOAT"}}}, {"name": "StatefulPartitionedCall/EfficientNetV1B0/tf.math.reduce_mean_68/Mean", "op": "Mean", "input": ["StatefulPartitionedCall/EfficientNetV1B0/stack_2_block1_MB_dw_swish/mul", "StatefulPartitionedCall/EfficientNetV1B0/tf.math.reduce_mean_68/Mean/reduction_indices"], "attr": {"Tidx": {"type": "DT_INT32"}, "keep_dims": {"b": true}, "T": {"type": "DT_FLOAT"}}}, {"name": "StatefulPartitionedCall/EfficientNetV1B0/stack_2_block1_se_1_conv/BiasAdd", "op": "_FusedConv2D", "input": ["StatefulPartitionedCall/EfficientNetV1B0/tf.math.reduce_mean_68/Mean", "StatefulPartitionedCall/EfficientNetV1B0/stack_2_block1_se_1_conv/Conv2D/ReadVariableOp", "StatefulPartitionedCall/EfficientNetV1B0/stack_2_block1_se_1_conv/BiasAdd/ReadVariableOp"], "device": "/device:CPU:0", "attr": {"use_cudnn_on_gpu": {"b": true}, "fused_ops": {"list": {"s": ["Qmlhc0FkZA=="]}}, "strides": {"list": {"i": ["1", "1", "1", "1"]}}, "explicit_paddings": {"list": {}}, "padding": {"s": "VkFMSUQ="}, "dilations": {"list": {"i": ["1", "1", "1", "1"]}}, "T": {"type": "DT_FLOAT"}, "num_args": {"i": "1"}, "epsilon": {"f": 0.0}, "data_format": {"s": "TkhXQw=="}}}, {"name": "StatefulPartitionedCall/EfficientNetV1B0/activation_136/Sigmoid", "op": "Sigmoid", "input": ["StatefulPartitionedCall/EfficientNetV1B0/stack_2_block1_se_1_conv/BiasAdd"], "attr": {"T": {"type": "DT_FLOAT"}}}, {"name": "StatefulPartitionedCall/EfficientNetV1B0/activation_136/mul", "op": "Mul", "input": ["StatefulPartitionedCall/EfficientNetV1B0/stack_2_block1_se_1_conv/BiasAdd", "StatefulPartitionedCall/EfficientNetV1B0/activation_136/Sigmoid"], "attr": {"T": {"type": "DT_FLOAT"}}}, {"name": "StatefulPartitionedCall/EfficientNetV1B0/stack_2_block1_se_2_conv/BiasAdd", "op": "_FusedConv2D", "input": ["StatefulPartitionedCall/EfficientNetV1B0/activation_136/mul", "StatefulPartitionedCall/EfficientNetV1B0/stack_2_block1_se_2_conv/Conv2D/ReadVariableOp", "StatefulPartitionedCall/EfficientNetV1B0/stack_2_block1_se_2_conv/BiasAdd/ReadVariableOp"], "device": "/device:CPU:0", "attr": {"explicit_paddings": {"list": {}}, "fused_ops": {"list": {"s": ["Qmlhc0FkZA=="]}}, "strides": {"list": {"i": ["1", "1", "1", "1"]}}, "num_args": {"i": "1"}, "dilations": {"list": {"i": ["1", "1", "1", "1"]}}, "epsilon": {"f": 0.0}, "T": {"type": "DT_FLOAT"}, "padding": {"s": "VkFMSUQ="}, "use_cudnn_on_gpu": {"b": true}, "data_format": {"s": "TkhXQw=="}}}, {"name": "StatefulPartitionedCall/EfficientNetV1B0/activation_137/Sigmoid", "op": "Sigmoid", "input": ["StatefulPartitionedCall/EfficientNetV1B0/stack_2_block1_se_2_conv/BiasAdd"], "attr": {"T": {"type": "DT_FLOAT"}}}, {"name": "StatefulPartitionedCall/EfficientNetV1B0/multiply_68/mul", "op": "Mul", "input": ["StatefulPartitionedCall/EfficientNetV1B0/stack_2_block1_MB_dw_swish/mul", "StatefulPartitionedCall/EfficientNetV1B0/activation_137/Sigmoid"], "attr": {"T": {"type": "DT_FLOAT"}}}, {"name": "StatefulPartitionedCall/EfficientNetV1B0/stack_2_block1_MB_pw_bn/FusedBatchNormV3", "op": "_FusedConv2D", "input": ["StatefulPartitionedCall/EfficientNetV1B0/multiply_68/mul", "StatefulPartitionedCall/EfficientNetV1B0/stack_2_block1_MB_pw_conv/Conv2D_weights", "StatefulPartitionedCall/EfficientNetV1B0/stack_2_block1_MB_pw_conv/Conv2D_bn_offset"], "device": "/device:CPU:0", "attr": {"num_args": {"i": "1"}, "dilations": {"list": {"i": ["1", "1", "1", "1"]}}, "strides": {"list": {"i": ["1", "1", "1", "1"]}}, "padding": {"s": "VkFMSUQ="}, "epsilon": {"f": 0.0}, "data_format": {"s": "TkhXQw=="}, "fused_ops": {"list": {"s": ["Qmlhc0FkZA=="]}}, "use_cudnn_on_gpu": {"b": true}, "explicit_paddings": {"list": {}}, "T": {"type": "DT_FLOAT"}}}, {"name": "StatefulPartitionedCall/EfficientNetV1B0/add_37/add", "op": "AddV2", "input": ["StatefulPartitionedCall/EfficientNetV1B0/stack_2_block0_MB_pw_bn/FusedBatchNormV3", "StatefulPartitionedCall/EfficientNetV1B0/stack_2_block1_MB_pw_bn/FusedBatchNormV3"], "attr": {"T": {"type": "DT_FLOAT"}}}, {"name": "StatefulPartitionedCall/EfficientNetV1B0/stack_3_block0_sortcut_bn/FusedBatchNormV3", "op": "_FusedConv2D", "input": ["StatefulPartitionedCall/EfficientNetV1B0/add_37/add", "StatefulPartitionedCall/EfficientNetV1B0/stack_3_block0_sortcut_conv/Conv2D_weights", "StatefulPartitionedCall/EfficientNetV1B0/stack_3_block0_sortcut_conv/Conv2D_bn_offset"], "device": "/device:CPU:0", "attr": {"epsilon": {"f": 0.0}, "data_format": {"s": "TkhXQw=="}, "strides": {"list": {"i": ["1", "1", "1", "1"]}}, "T": {"type": "DT_FLOAT"}, "padding": {"s": "VkFMSUQ="}, "use_cudnn_on_gpu": {"b": true}, "fused_ops": {"list": {"s": ["Qmlhc0FkZA=="]}}, "explicit_paddings": {"list": {}}, "dilations": {"list": {"i": ["1", "1", "1", "1"]}}, "num_args": {"i": "1"}}}, {"name": "StatefulPartitionedCall/EfficientNetV1B0/stack_3_block0_sortcut_swish/Sigmoid", "op": "Sigmoid", "input": ["StatefulPartitionedCall/EfficientNetV1B0/stack_3_block0_sortcut_bn/FusedBatchNormV3"], "attr": {"T": {"type": "DT_FLOAT"}}}, {"name": "StatefulPartitionedCall/EfficientNetV1B0/stack_3_block0_sortcut_swish/mul", "op": "Mul", "input": ["StatefulPartitionedCall/EfficientNetV1B0/stack_3_block0_sortcut_bn/FusedBatchNormV3", "StatefulPartitionedCall/EfficientNetV1B0/stack_3_block0_sortcut_swish/Sigmoid"], "attr": {"T": {"type": "DT_FLOAT"}}}, {"name": "StatefulPartitionedCall/EfficientNetV1B0/stack_3_block0_MB_dw_/depthwise", "op": "FusedDepthwiseConv2dNative", "input": ["StatefulPartitionedCall/EfficientNetV1B0/stack_3_block0_sortcut_swish/mul", "StatefulPartitionedCall/EfficientNetV1B0/stack_3_block0_MB_dw_/depthwise_weights", "StatefulPartitionedCall/EfficientNetV1B0/stack_3_block0_MB_dw_/depthwise_bn_offset"], "attr": {"dilations": {"list": {"i": ["1", "1", "1", "1"]}}, "T": {"type": "DT_FLOAT"}, "num_args": {"i": "1"}, "strides": {"list": {"i": ["1", "2", "2", "1"]}}, "data_format": {"s": "TkhXQw=="}, "padding": {"s": "U0FNRQ=="}, "fused_ops": {"list": {"s": ["Qmlhc0FkZA=="]}}, "explicit_paddings": {"list": {}}}}, {"name": "StatefulPartitionedCall/EfficientNetV1B0/stack_3_block0_MB_dw_swish/Sigmoid", "op": "Sigmoid", "input": ["StatefulPartitionedCall/EfficientNetV1B0/stack_3_block0_MB_dw_/depthwise"], "attr": {"T": {"type": "DT_FLOAT"}}}, {"name": "StatefulPartitionedCall/EfficientNetV1B0/stack_3_block0_MB_dw_swish/mul", "op": "Mul", "input": ["StatefulPartitionedCall/EfficientNetV1B0/stack_3_block0_MB_dw_/depthwise", "StatefulPartitionedCall/EfficientNetV1B0/stack_3_block0_MB_dw_swish/Sigmoid"], "attr": {"T": {"type": "DT_FLOAT"}}}, {"name": "StatefulPartitionedCall/EfficientNetV1B0/tf.math.reduce_mean_69/Mean", "op": "Mean", "input": ["StatefulPartitionedCall/EfficientNetV1B0/stack_3_block0_MB_dw_swish/mul", "StatefulPartitionedCall/EfficientNetV1B0/tf.math.reduce_mean_69/Mean/reduction_indices"], "attr": {"T": {"type": "DT_FLOAT"}, "Tidx": {"type": "DT_INT32"}, "keep_dims": {"b": true}}}, {"name": "StatefulPartitionedCall/EfficientNetV1B0/stack_3_block0_se_1_conv/BiasAdd", "op": "_FusedConv2D", "input": ["StatefulPartitionedCall/EfficientNetV1B0/tf.math.reduce_mean_69/Mean", "StatefulPartitionedCall/EfficientNetV1B0/stack_3_block0_se_1_conv/Conv2D/ReadVariableOp", "StatefulPartitionedCall/EfficientNetV1B0/stack_3_block0_se_1_conv/BiasAdd/ReadVariableOp"], "device": "/device:CPU:0", "attr": {"num_args": {"i": "1"}, "data_format": {"s": "TkhXQw=="}, "use_cudnn_on_gpu": {"b": true}, "T": {"type": "DT_FLOAT"}, "strides": {"list": {"i": ["1", "1", "1", "1"]}}, "fused_ops": {"list": {"s": ["Qmlhc0FkZA=="]}}, "epsilon": {"f": 0.0}, "explicit_paddings": {"list": {}}, "padding": {"s": "VkFMSUQ="}, "dilations": {"list": {"i": ["1", "1", "1", "1"]}}}}, {"name": "StatefulPartitionedCall/EfficientNetV1B0/activation_138/Sigmoid", "op": "Sigmoid", "input": ["StatefulPartitionedCall/EfficientNetV1B0/stack_3_block0_se_1_conv/BiasAdd"], "attr": {"T": {"type": "DT_FLOAT"}}}, {"name": "StatefulPartitionedCall/EfficientNetV1B0/activation_138/mul", "op": "Mul", "input": ["StatefulPartitionedCall/EfficientNetV1B0/stack_3_block0_se_1_conv/BiasAdd", "StatefulPartitionedCall/EfficientNetV1B0/activation_138/Sigmoid"], "attr": {"T": {"type": "DT_FLOAT"}}}, {"name": "StatefulPartitionedCall/EfficientNetV1B0/stack_3_block0_se_2_conv/BiasAdd", "op": "_FusedConv2D", "input": ["StatefulPartitionedCall/EfficientNetV1B0/activation_138/mul", "StatefulPartitionedCall/EfficientNetV1B0/stack_3_block0_se_2_conv/Conv2D/ReadVariableOp", "StatefulPartitionedCall/EfficientNetV1B0/stack_3_block0_se_2_conv/BiasAdd/ReadVariableOp"], "device": "/device:CPU:0", "attr": {"dilations": {"list": {"i": ["1", "1", "1", "1"]}}, "T": {"type": "DT_FLOAT"}, "use_cudnn_on_gpu": {"b": true}, "epsilon": {"f": 0.0}, "data_format": {"s": "TkhXQw=="}, "padding": {"s": "VkFMSUQ="}, "fused_ops": {"list": {"s": ["Qmlhc0FkZA=="]}}, "explicit_paddings": {"list": {}}, "num_args": {"i": "1"}, "strides": {"list": {"i": ["1", "1", "1", "1"]}}}}, {"name": "StatefulPartitionedCall/EfficientNetV1B0/activation_139/Sigmoid", "op": "Sigmoid", "input": ["StatefulPartitionedCall/EfficientNetV1B0/stack_3_block0_se_2_conv/BiasAdd"], "attr": {"T": {"type": "DT_FLOAT"}}}, {"name": "StatefulPartitionedCall/EfficientNetV1B0/multiply_69/mul", "op": "Mul", "input": ["StatefulPartitionedCall/EfficientNetV1B0/stack_3_block0_MB_dw_swish/mul", "StatefulPartitionedCall/EfficientNetV1B0/activation_139/Sigmoid"], "attr": {"T": {"type": "DT_FLOAT"}}}, {"name": "StatefulPartitionedCall/EfficientNetV1B0/stack_3_block0_MB_pw_bn/FusedBatchNormV3", "op": "_FusedConv2D", "input": ["StatefulPartitionedCall/EfficientNetV1B0/multiply_69/mul", "StatefulPartitionedCall/EfficientNetV1B0/stack_3_block0_MB_pw_conv/Conv2D_weights", "StatefulPartitionedCall/EfficientNetV1B0/stack_3_block0_MB_pw_conv/Conv2D_bn_offset"], "device": "/device:CPU:0", "attr": {"fused_ops": {"list": {"s": ["Qmlhc0FkZA=="]}}, "epsilon": {"f": 0.0}, "data_format": {"s": "TkhXQw=="}, "use_cudnn_on_gpu": {"b": true}, "T": {"type": "DT_FLOAT"}, "padding": {"s": "VkFMSUQ="}, "strides": {"list": {"i": ["1", "1", "1", "1"]}}, "explicit_paddings": {"list": {}}, "dilations": {"list": {"i": ["1", "1", "1", "1"]}}, "num_args": {"i": "1"}}}, {"name": "StatefulPartitionedCall/EfficientNetV1B0/stack_3_block1_sortcut_bn/FusedBatchNormV3", "op": "_FusedConv2D", "input": ["StatefulPartitionedCall/EfficientNetV1B0/stack_3_block0_MB_pw_bn/FusedBatchNormV3", "StatefulPartitionedCall/EfficientNetV1B0/stack_3_block1_sortcut_conv/Conv2D_weights", "StatefulPartitionedCall/EfficientNetV1B0/stack_3_block1_sortcut_conv/Conv2D_bn_offset"], "device": "/device:CPU:0", "attr": {"fused_ops": {"list": {"s": ["Qmlhc0FkZA=="]}}, "padding": {"s": "VkFMSUQ="}, "num_args": {"i": "1"}, "epsilon": {"f": 0.0}, "dilations": {"list": {"i": ["1", "1", "1", "1"]}}, "use_cudnn_on_gpu": {"b": true}, "data_format": {"s": "TkhXQw=="}, "strides": {"list": {"i": ["1", "1", "1", "1"]}}, "explicit_paddings": {"list": {}}, "T": {"type": "DT_FLOAT"}}}, {"name": "StatefulPartitionedCall/EfficientNetV1B0/stack_3_block1_sortcut_swish/Sigmoid", "op": "Sigmoid", "input": ["StatefulPartitionedCall/EfficientNetV1B0/stack_3_block1_sortcut_bn/FusedBatchNormV3"], "attr": {"T": {"type": "DT_FLOAT"}}}, {"name": "StatefulPartitionedCall/EfficientNetV1B0/stack_3_block1_sortcut_swish/mul", "op": "Mul", "input": ["StatefulPartitionedCall/EfficientNetV1B0/stack_3_block1_sortcut_bn/FusedBatchNormV3", "StatefulPartitionedCall/EfficientNetV1B0/stack_3_block1_sortcut_swish/Sigmoid"], "attr": {"T": {"type": "DT_FLOAT"}}}, {"name": "StatefulPartitionedCall/EfficientNetV1B0/stack_3_block1_MB_dw_/depthwise", "op": "FusedDepthwiseConv2dNative", "input": ["StatefulPartitionedCall/EfficientNetV1B0/stack_3_block1_sortcut_swish/mul", "StatefulPartitionedCall/EfficientNetV1B0/stack_3_block1_MB_dw_/depthwise_weights", "StatefulPartitionedCall/EfficientNetV1B0/stack_3_block1_MB_dw_/depthwise_bn_offset"], "attr": {"explicit_paddings": {"list": {}}, "fused_ops": {"list": {"s": ["Qmlhc0FkZA=="]}}, "padding": {"s": "U0FNRQ=="}, "num_args": {"i": "1"}, "dilations": {"list": {"i": ["1", "1", "1", "1"]}}, "data_format": {"s": "TkhXQw=="}, "strides": {"list": {"i": ["1", "1", "1", "1"]}}, "T": {"type": "DT_FLOAT"}}}, {"name": "StatefulPartitionedCall/EfficientNetV1B0/stack_3_block1_MB_dw_swish/Sigmoid", "op": "Sigmoid", "input": ["StatefulPartitionedCall/EfficientNetV1B0/stack_3_block1_MB_dw_/depthwise"], "attr": {"T": {"type": "DT_FLOAT"}}}, {"name": "StatefulPartitionedCall/EfficientNetV1B0/stack_3_block1_MB_dw_swish/mul", "op": "Mul", "input": ["StatefulPartitionedCall/EfficientNetV1B0/stack_3_block1_MB_dw_/depthwise", "StatefulPartitionedCall/EfficientNetV1B0/stack_3_block1_MB_dw_swish/Sigmoid"], "attr": {"T": {"type": "DT_FLOAT"}}}, {"name": "StatefulPartitionedCall/EfficientNetV1B0/tf.math.reduce_mean_70/Mean", "op": "Mean", "input": ["StatefulPartitionedCall/EfficientNetV1B0/stack_3_block1_MB_dw_swish/mul", "StatefulPartitionedCall/EfficientNetV1B0/tf.math.reduce_mean_70/Mean/reduction_indices"], "attr": {"keep_dims": {"b": true}, "T": {"type": "DT_FLOAT"}, "Tidx": {"type": "DT_INT32"}}}, {"name": "StatefulPartitionedCall/EfficientNetV1B0/stack_3_block1_se_1_conv/BiasAdd", "op": "_FusedConv2D", "input": ["StatefulPartitionedCall/EfficientNetV1B0/tf.math.reduce_mean_70/Mean", "StatefulPartitionedCall/EfficientNetV1B0/stack_3_block1_se_1_conv/Conv2D/ReadVariableOp", "StatefulPartitionedCall/EfficientNetV1B0/stack_3_block1_se_1_conv/BiasAdd/ReadVariableOp"], "device": "/device:CPU:0", "attr": {"padding": {"s": "VkFMSUQ="}, "num_args": {"i": "1"}, "dilations": {"list": {"i": ["1", "1", "1", "1"]}}, "epsilon": {"f": 0.0}, "use_cudnn_on_gpu": {"b": true}, "data_format": {"s": "TkhXQw=="}, "strides": {"list": {"i": ["1", "1", "1", "1"]}}, "explicit_paddings": {"list": {}}, "fused_ops": {"list": {"s": ["Qmlhc0FkZA=="]}}, "T": {"type": "DT_FLOAT"}}}, {"name": "StatefulPartitionedCall/EfficientNetV1B0/activation_140/Sigmoid", "op": "Sigmoid", "input": ["StatefulPartitionedCall/EfficientNetV1B0/stack_3_block1_se_1_conv/BiasAdd"], "attr": {"T": {"type": "DT_FLOAT"}}}, {"name": "StatefulPartitionedCall/EfficientNetV1B0/activation_140/mul", "op": "Mul", "input": ["StatefulPartitionedCall/EfficientNetV1B0/stack_3_block1_se_1_conv/BiasAdd", "StatefulPartitionedCall/EfficientNetV1B0/activation_140/Sigmoid"], "attr": {"T": {"type": "DT_FLOAT"}}}, {"name": "StatefulPartitionedCall/EfficientNetV1B0/stack_3_block1_se_2_conv/BiasAdd", "op": "_FusedConv2D", "input": ["StatefulPartitionedCall/EfficientNetV1B0/activation_140/mul", "StatefulPartitionedCall/EfficientNetV1B0/stack_3_block1_se_2_conv/Conv2D/ReadVariableOp", "StatefulPartitionedCall/EfficientNetV1B0/stack_3_block1_se_2_conv/BiasAdd/ReadVariableOp"], "device": "/device:CPU:0", "attr": {"data_format": {"s": "TkhXQw=="}, "fused_ops": {"list": {"s": ["Qmlhc0FkZA=="]}}, "use_cudnn_on_gpu": {"b": true}, "epsilon": {"f": 0.0}, "T": {"type": "DT_FLOAT"}, "explicit_paddings": {"list": {}}, "padding": {"s": "VkFMSUQ="}, "dilations": {"list": {"i": ["1", "1", "1", "1"]}}, "strides": {"list": {"i": ["1", "1", "1", "1"]}}, "num_args": {"i": "1"}}}, {"name": "StatefulPartitionedCall/EfficientNetV1B0/activation_141/Sigmoid", "op": "Sigmoid", "input": ["StatefulPartitionedCall/EfficientNetV1B0/stack_3_block1_se_2_conv/BiasAdd"], "attr": {"T": {"type": "DT_FLOAT"}}}, {"name": "StatefulPartitionedCall/EfficientNetV1B0/multiply_70/mul", "op": "Mul", "input": ["StatefulPartitionedCall/EfficientNetV1B0/stack_3_block1_MB_dw_swish/mul", "StatefulPartitionedCall/EfficientNetV1B0/activation_141/Sigmoid"], "attr": {"T": {"type": "DT_FLOAT"}}}, {"name": "StatefulPartitionedCall/EfficientNetV1B0/stack_3_block1_MB_pw_bn/FusedBatchNormV3", "op": "_FusedConv2D", "input": ["StatefulPartitionedCall/EfficientNetV1B0/multiply_70/mul", "StatefulPartitionedCall/EfficientNetV1B0/stack_3_block1_MB_pw_conv/Conv2D_weights", "StatefulPartitionedCall/EfficientNetV1B0/stack_3_block1_MB_pw_conv/Conv2D_bn_offset"], "device": "/device:CPU:0", "attr": {"padding": {"s": "VkFMSUQ="}, "dilations": {"list": {"i": ["1", "1", "1", "1"]}}, "strides": {"list": {"i": ["1", "1", "1", "1"]}}, "T": {"type": "DT_FLOAT"}, "epsilon": {"f": 0.0}, "num_args": {"i": "1"}, "fused_ops": {"list": {"s": ["Qmlhc0FkZA=="]}}, "data_format": {"s": "TkhXQw=="}, "use_cudnn_on_gpu": {"b": true}, "explicit_paddings": {"list": {}}}}, {"name": "StatefulPartitionedCall/EfficientNetV1B0/add_38/add", "op": "AddV2", "input": ["StatefulPartitionedCall/EfficientNetV1B0/stack_3_block0_MB_pw_bn/FusedBatchNormV3", "StatefulPartitionedCall/EfficientNetV1B0/stack_3_block1_MB_pw_bn/FusedBatchNormV3"], "attr": {"T": {"type": "DT_FLOAT"}}}, {"name": "StatefulPartitionedCall/EfficientNetV1B0/stack_3_block2_sortcut_bn/FusedBatchNormV3", "op": "_FusedConv2D", "input": ["StatefulPartitionedCall/EfficientNetV1B0/add_38/add", "StatefulPartitionedCall/EfficientNetV1B0/stack_3_block2_sortcut_conv/Conv2D_weights", "StatefulPartitionedCall/EfficientNetV1B0/stack_3_block2_sortcut_conv/Conv2D_bn_offset"], "device": "/device:CPU:0", "attr": {"fused_ops": {"list": {"s": ["Qmlhc0FkZA=="]}}, "epsilon": {"f": 0.0}, "use_cudnn_on_gpu": {"b": true}, "T": {"type": "DT_FLOAT"}, "data_format": {"s": "TkhXQw=="}, "strides": {"list": {"i": ["1", "1", "1", "1"]}}, "padding": {"s": "VkFMSUQ="}, "explicit_paddings": {"list": {}}, "num_args": {"i": "1"}, "dilations": {"list": {"i": ["1", "1", "1", "1"]}}}}, {"name": "StatefulPartitionedCall/EfficientNetV1B0/stack_3_block2_sortcut_swish/Sigmoid", "op": "Sigmoid", "input": ["StatefulPartitionedCall/EfficientNetV1B0/stack_3_block2_sortcut_bn/FusedBatchNormV3"], "attr": {"T": {"type": "DT_FLOAT"}}}, {"name": "StatefulPartitionedCall/EfficientNetV1B0/stack_3_block2_sortcut_swish/mul", "op": "Mul", "input": ["StatefulPartitionedCall/EfficientNetV1B0/stack_3_block2_sortcut_bn/FusedBatchNormV3", "StatefulPartitionedCall/EfficientNetV1B0/stack_3_block2_sortcut_swish/Sigmoid"], "attr": {"T": {"type": "DT_FLOAT"}}}, {"name": "StatefulPartitionedCall/EfficientNetV1B0/stack_3_block2_MB_dw_/depthwise", "op": "FusedDepthwiseConv2dNative", "input": ["StatefulPartitionedCall/EfficientNetV1B0/stack_3_block2_sortcut_swish/mul", "StatefulPartitionedCall/EfficientNetV1B0/stack_3_block2_MB_dw_/depthwise_weights", "StatefulPartitionedCall/EfficientNetV1B0/stack_3_block2_MB_dw_/depthwise_bn_offset"], "attr": {"data_format": {"s": "TkhXQw=="}, "strides": {"list": {"i": ["1", "1", "1", "1"]}}, "fused_ops": {"list": {"s": ["Qmlhc0FkZA=="]}}, "explicit_paddings": {"list": {}}, "padding": {"s": "U0FNRQ=="}, "T": {"type": "DT_FLOAT"}, "dilations": {"list": {"i": ["1", "1", "1", "1"]}}, "num_args": {"i": "1"}}}, {"name": "StatefulPartitionedCall/EfficientNetV1B0/stack_3_block2_MB_dw_swish/Sigmoid", "op": "Sigmoid", "input": ["StatefulPartitionedCall/EfficientNetV1B0/stack_3_block2_MB_dw_/depthwise"], "attr": {"T": {"type": "DT_FLOAT"}}}, {"name": "StatefulPartitionedCall/EfficientNetV1B0/stack_3_block2_MB_dw_swish/mul", "op": "Mul", "input": ["StatefulPartitionedCall/EfficientNetV1B0/stack_3_block2_MB_dw_/depthwise", "StatefulPartitionedCall/EfficientNetV1B0/stack_3_block2_MB_dw_swish/Sigmoid"], "attr": {"T": {"type": "DT_FLOAT"}}}, {"name": "StatefulPartitionedCall/EfficientNetV1B0/tf.math.reduce_mean_71/Mean", "op": "Mean", "input": ["StatefulPartitionedCall/EfficientNetV1B0/stack_3_block2_MB_dw_swish/mul", "StatefulPartitionedCall/EfficientNetV1B0/tf.math.reduce_mean_71/Mean/reduction_indices"], "attr": {"keep_dims": {"b": true}, "Tidx": {"type": "DT_INT32"}, "T": {"type": "DT_FLOAT"}}}, {"name": "StatefulPartitionedCall/EfficientNetV1B0/stack_3_block2_se_1_conv/BiasAdd", "op": "_FusedConv2D", "input": ["StatefulPartitionedCall/EfficientNetV1B0/tf.math.reduce_mean_71/Mean", "StatefulPartitionedCall/EfficientNetV1B0/stack_3_block2_se_1_conv/Conv2D/ReadVariableOp", "StatefulPartitionedCall/EfficientNetV1B0/stack_3_block2_se_1_conv/BiasAdd/ReadVariableOp"], "device": "/device:CPU:0", "attr": {"padding": {"s": "VkFMSUQ="}, "use_cudnn_on_gpu": {"b": true}, "data_format": {"s": "TkhXQw=="}, "explicit_paddings": {"list": {}}, "fused_ops": {"list": {"s": ["Qmlhc0FkZA=="]}}, "epsilon": {"f": 0.0}, "T": {"type": "DT_FLOAT"}, "strides": {"list": {"i": ["1", "1", "1", "1"]}}, "num_args": {"i": "1"}, "dilations": {"list": {"i": ["1", "1", "1", "1"]}}}}, {"name": "StatefulPartitionedCall/EfficientNetV1B0/activation_142/Sigmoid", "op": "Sigmoid", "input": ["StatefulPartitionedCall/EfficientNetV1B0/stack_3_block2_se_1_conv/BiasAdd"], "attr": {"T": {"type": "DT_FLOAT"}}}, {"name": "StatefulPartitionedCall/EfficientNetV1B0/activation_142/mul", "op": "Mul", "input": ["StatefulPartitionedCall/EfficientNetV1B0/stack_3_block2_se_1_conv/BiasAdd", "StatefulPartitionedCall/EfficientNetV1B0/activation_142/Sigmoid"], "attr": {"T": {"type": "DT_FLOAT"}}}, {"name": "StatefulPartitionedCall/EfficientNetV1B0/stack_3_block2_se_2_conv/BiasAdd", "op": "_FusedConv2D", "input": ["StatefulPartitionedCall/EfficientNetV1B0/activation_142/mul", "StatefulPartitionedCall/EfficientNetV1B0/stack_3_block2_se_2_conv/Conv2D/ReadVariableOp", "StatefulPartitionedCall/EfficientNetV1B0/stack_3_block2_se_2_conv/BiasAdd/ReadVariableOp"], "device": "/device:CPU:0", "attr": {"dilations": {"list": {"i": ["1", "1", "1", "1"]}}, "T": {"type": "DT_FLOAT"}, "use_cudnn_on_gpu": {"b": true}, "data_format": {"s": "TkhXQw=="}, "strides": {"list": {"i": ["1", "1", "1", "1"]}}, "explicit_paddings": {"list": {}}, "fused_ops": {"list": {"s": ["Qmlhc0FkZA=="]}}, "padding": {"s": "VkFMSUQ="}, "epsilon": {"f": 0.0}, "num_args": {"i": "1"}}}, {"name": "StatefulPartitionedCall/EfficientNetV1B0/activation_143/Sigmoid", "op": "Sigmoid", "input": ["StatefulPartitionedCall/EfficientNetV1B0/stack_3_block2_se_2_conv/BiasAdd"], "attr": {"T": {"type": "DT_FLOAT"}}}, {"name": "StatefulPartitionedCall/EfficientNetV1B0/multiply_71/mul", "op": "Mul", "input": ["StatefulPartitionedCall/EfficientNetV1B0/stack_3_block2_MB_dw_swish/mul", "StatefulPartitionedCall/EfficientNetV1B0/activation_143/Sigmoid"], "attr": {"T": {"type": "DT_FLOAT"}}}, {"name": "StatefulPartitionedCall/EfficientNetV1B0/stack_3_block2_MB_pw_bn/FusedBatchNormV3", "op": "_FusedConv2D", "input": ["StatefulPartitionedCall/EfficientNetV1B0/multiply_71/mul", "StatefulPartitionedCall/EfficientNetV1B0/stack_3_block2_MB_pw_conv/Conv2D_weights", "StatefulPartitionedCall/EfficientNetV1B0/stack_3_block2_MB_pw_conv/Conv2D_bn_offset"], "device": "/device:CPU:0", "attr": {"epsilon": {"f": 0.0}, "num_args": {"i": "1"}, "fused_ops": {"list": {"s": ["Qmlhc0FkZA=="]}}, "data_format": {"s": "TkhXQw=="}, "padding": {"s": "VkFMSUQ="}, "strides": {"list": {"i": ["1", "1", "1", "1"]}}, "use_cudnn_on_gpu": {"b": true}, "T": {"type": "DT_FLOAT"}, "explicit_paddings": {"list": {}}, "dilations": {"list": {"i": ["1", "1", "1", "1"]}}}}, {"name": "StatefulPartitionedCall/EfficientNetV1B0/add_39/add", "op": "AddV2", "input": ["StatefulPartitionedCall/EfficientNetV1B0/add_38/add", "StatefulPartitionedCall/EfficientNetV1B0/stack_3_block2_MB_pw_bn/FusedBatchNormV3"], "attr": {"T": {"type": "DT_FLOAT"}}}, {"name": "StatefulPartitionedCall/EfficientNetV1B0/stack_4_block0_sortcut_bn/FusedBatchNormV3", "op": "_FusedConv2D", "input": ["StatefulPartitionedCall/EfficientNetV1B0/add_39/add", "StatefulPartitionedCall/EfficientNetV1B0/stack_4_block0_sortcut_conv/Conv2D_weights", "StatefulPartitionedCall/EfficientNetV1B0/stack_4_block0_sortcut_conv/Conv2D_bn_offset"], "device": "/device:CPU:0", "attr": {"num_args": {"i": "1"}, "dilations": {"list": {"i": ["1", "1", "1", "1"]}}, "epsilon": {"f": 0.0}, "fused_ops": {"list": {"s": ["Qmlhc0FkZA=="]}}, "use_cudnn_on_gpu": {"b": true}, "strides": {"list": {"i": ["1", "1", "1", "1"]}}, "padding": {"s": "VkFMSUQ="}, "T": {"type": "DT_FLOAT"}, "data_format": {"s": "TkhXQw=="}, "explicit_paddings": {"list": {}}}}, {"name": "StatefulPartitionedCall/EfficientNetV1B0/stack_4_block0_sortcut_swish/Sigmoid", "op": "Sigmoid", "input": ["StatefulPartitionedCall/EfficientNetV1B0/stack_4_block0_sortcut_bn/FusedBatchNormV3"], "attr": {"T": {"type": "DT_FLOAT"}}}, {"name": "StatefulPartitionedCall/EfficientNetV1B0/stack_4_block0_sortcut_swish/mul", "op": "Mul", "input": ["StatefulPartitionedCall/EfficientNetV1B0/stack_4_block0_sortcut_bn/FusedBatchNormV3", "StatefulPartitionedCall/EfficientNetV1B0/stack_4_block0_sortcut_swish/Sigmoid"], "attr": {"T": {"type": "DT_FLOAT"}}}, {"name": "StatefulPartitionedCall/EfficientNetV1B0/stack_4_block0_MB_dw_/depthwise", "op": "FusedDepthwiseConv2dNative", "input": ["StatefulPartitionedCall/EfficientNetV1B0/stack_4_block0_sortcut_swish/mul", "StatefulPartitionedCall/EfficientNetV1B0/stack_4_block0_MB_dw_/depthwise_weights", "StatefulPartitionedCall/EfficientNetV1B0/stack_4_block0_MB_dw_/depthwise_bn_offset"], "attr": {"fused_ops": {"list": {"s": ["Qmlhc0FkZA=="]}}, "explicit_paddings": {"list": {}}, "dilations": {"list": {"i": ["1", "1", "1", "1"]}}, "strides": {"list": {"i": ["1", "1", "1", "1"]}}, "num_args": {"i": "1"}, "data_format": {"s": "TkhXQw=="}, "padding": {"s": "U0FNRQ=="}, "T": {"type": "DT_FLOAT"}}}, {"name": "StatefulPartitionedCall/EfficientNetV1B0/stack_4_block0_MB_dw_swish/Sigmoid", "op": "Sigmoid", "input": ["StatefulPartitionedCall/EfficientNetV1B0/stack_4_block0_MB_dw_/depthwise"], "attr": {"T": {"type": "DT_FLOAT"}}}, {"name": "StatefulPartitionedCall/EfficientNetV1B0/stack_4_block0_MB_dw_swish/mul", "op": "Mul", "input": ["StatefulPartitionedCall/EfficientNetV1B0/stack_4_block0_MB_dw_/depthwise", "StatefulPartitionedCall/EfficientNetV1B0/stack_4_block0_MB_dw_swish/Sigmoid"], "attr": {"T": {"type": "DT_FLOAT"}}}, {"name": "StatefulPartitionedCall/EfficientNetV1B0/tf.math.reduce_mean_72/Mean", "op": "Mean", "input": ["StatefulPartitionedCall/EfficientNetV1B0/stack_4_block0_MB_dw_swish/mul", "StatefulPartitionedCall/EfficientNetV1B0/tf.math.reduce_mean_72/Mean/reduction_indices"], "attr": {"T": {"type": "DT_FLOAT"}, "keep_dims": {"b": true}, "Tidx": {"type": "DT_INT32"}}}, {"name": "StatefulPartitionedCall/EfficientNetV1B0/stack_4_block0_se_1_conv/BiasAdd", "op": "_FusedConv2D", "input": ["StatefulPartitionedCall/EfficientNetV1B0/tf.math.reduce_mean_72/Mean", "StatefulPartitionedCall/EfficientNetV1B0/stack_4_block0_se_1_conv/Conv2D/ReadVariableOp", "StatefulPartitionedCall/EfficientNetV1B0/stack_4_block0_se_1_conv/BiasAdd/ReadVariableOp"], "device": "/device:CPU:0", "attr": {"fused_ops": {"list": {"s": ["Qmlhc0FkZA=="]}}, "epsilon": {"f": 0.0}, "T": {"type": "DT_FLOAT"}, "data_format": {"s": "TkhXQw=="}, "use_cudnn_on_gpu": {"b": true}, "strides": {"list": {"i": ["1", "1", "1", "1"]}}, "padding": {"s": "VkFMSUQ="}, "explicit_paddings": {"list": {}}, "num_args": {"i": "1"}, "dilations": {"list": {"i": ["1", "1", "1", "1"]}}}}, {"name": "StatefulPartitionedCall/EfficientNetV1B0/activation_144/Sigmoid", "op": "Sigmoid", "input": ["StatefulPartitionedCall/EfficientNetV1B0/stack_4_block0_se_1_conv/BiasAdd"], "attr": {"T": {"type": "DT_FLOAT"}}}, {"name": "StatefulPartitionedCall/EfficientNetV1B0/activation_144/mul", "op": "Mul", "input": ["StatefulPartitionedCall/EfficientNetV1B0/stack_4_block0_se_1_conv/BiasAdd", "StatefulPartitionedCall/EfficientNetV1B0/activation_144/Sigmoid"], "attr": {"T": {"type": "DT_FLOAT"}}}, {"name": "StatefulPartitionedCall/EfficientNetV1B0/stack_4_block0_se_2_conv/BiasAdd", "op": "_FusedConv2D", "input": ["StatefulPartitionedCall/EfficientNetV1B0/activation_144/mul", "StatefulPartitionedCall/EfficientNetV1B0/stack_4_block0_se_2_conv/Conv2D/ReadVariableOp", "StatefulPartitionedCall/EfficientNetV1B0/stack_4_block0_se_2_conv/BiasAdd/ReadVariableOp"], "device": "/device:CPU:0", "attr": {"epsilon": {"f": 0.0}, "explicit_paddings": {"list": {}}, "dilations": {"list": {"i": ["1", "1", "1", "1"]}}, "padding": {"s": "VkFMSUQ="}, "num_args": {"i": "1"}, "strides": {"list": {"i": ["1", "1", "1", "1"]}}, "fused_ops": {"list": {"s": ["Qmlhc0FkZA=="]}}, "data_format": {"s": "TkhXQw=="}, "use_cudnn_on_gpu": {"b": true}, "T": {"type": "DT_FLOAT"}}}, {"name": "StatefulPartitionedCall/EfficientNetV1B0/activation_145/Sigmoid", "op": "Sigmoid", "input": ["StatefulPartitionedCall/EfficientNetV1B0/stack_4_block0_se_2_conv/BiasAdd"], "attr": {"T": {"type": "DT_FLOAT"}}}, {"name": "StatefulPartitionedCall/EfficientNetV1B0/multiply_72/mul", "op": "Mul", "input": ["StatefulPartitionedCall/EfficientNetV1B0/stack_4_block0_MB_dw_swish/mul", "StatefulPartitionedCall/EfficientNetV1B0/activation_145/Sigmoid"], "attr": {"T": {"type": "DT_FLOAT"}}}, {"name": "StatefulPartitionedCall/EfficientNetV1B0/stack_4_block0_MB_pw_bn/FusedBatchNormV3", "op": "_FusedConv2D", "input": ["StatefulPartitionedCall/EfficientNetV1B0/multiply_72/mul", "StatefulPartitionedCall/EfficientNetV1B0/stack_4_block0_MB_pw_conv/Conv2D_weights", "StatefulPartitionedCall/EfficientNetV1B0/stack_4_block0_MB_pw_conv/Conv2D_bn_offset"], "device": "/device:CPU:0", "attr": {"fused_ops": {"list": {"s": ["Qmlhc0FkZA=="]}}, "data_format": {"s": "TkhXQw=="}, "use_cudnn_on_gpu": {"b": true}, "T": {"type": "DT_FLOAT"}, "explicit_paddings": {"list": {}}, "epsilon": {"f": 0.0}, "dilations": {"list": {"i": ["1", "1", "1", "1"]}}, "padding": {"s": "VkFMSUQ="}, "num_args": {"i": "1"}, "strides": {"list": {"i": ["1", "1", "1", "1"]}}}}, {"name": "StatefulPartitionedCall/EfficientNetV1B0/stack_4_block1_sortcut_bn/FusedBatchNormV3", "op": "_FusedConv2D", "input": ["StatefulPartitionedCall/EfficientNetV1B0/stack_4_block0_MB_pw_bn/FusedBatchNormV3", "StatefulPartitionedCall/EfficientNetV1B0/stack_4_block1_sortcut_conv/Conv2D_weights", "StatefulPartitionedCall/EfficientNetV1B0/stack_4_block1_sortcut_conv/Conv2D_bn_offset"], "device": "/device:CPU:0", "attr": {"use_cudnn_on_gpu": {"b": true}, "data_format": {"s": "TkhXQw=="}, "explicit_paddings": {"list": {}}, "fused_ops": {"list": {"s": ["Qmlhc0FkZA=="]}}, "strides": {"list": {"i": ["1", "1", "1", "1"]}}, "epsilon": {"f": 0.0}, "T": {"type": "DT_FLOAT"}, "num_args": {"i": "1"}, "dilations": {"list": {"i": ["1", "1", "1", "1"]}}, "padding": {"s": "VkFMSUQ="}}}, {"name": "StatefulPartitionedCall/EfficientNetV1B0/stack_4_block1_sortcut_swish/Sigmoid", "op": "Sigmoid", "input": ["StatefulPartitionedCall/EfficientNetV1B0/stack_4_block1_sortcut_bn/FusedBatchNormV3"], "attr": {"T": {"type": "DT_FLOAT"}}}, {"name": "StatefulPartitionedCall/EfficientNetV1B0/stack_4_block1_sortcut_swish/mul", "op": "Mul", "input": ["StatefulPartitionedCall/EfficientNetV1B0/stack_4_block1_sortcut_bn/FusedBatchNormV3", "StatefulPartitionedCall/EfficientNetV1B0/stack_4_block1_sortcut_swish/Sigmoid"], "attr": {"T": {"type": "DT_FLOAT"}}}, {"name": "StatefulPartitionedCall/EfficientNetV1B0/stack_4_block1_MB_dw_/depthwise", "op": "FusedDepthwiseConv2dNative", "input": ["StatefulPartitionedCall/EfficientNetV1B0/stack_4_block1_sortcut_swish/mul", "StatefulPartitionedCall/EfficientNetV1B0/stack_4_block1_MB_dw_/depthwise_weights", "StatefulPartitionedCall/EfficientNetV1B0/stack_4_block1_MB_dw_/depthwise_bn_offset"], "attr": {"data_format": {"s": "TkhXQw=="}, "padding": {"s": "U0FNRQ=="}, "num_args": {"i": "1"}, "fused_ops": {"list": {"s": ["Qmlhc0FkZA=="]}}, "explicit_paddings": {"list": {}}, "dilations": {"list": {"i": ["1", "1", "1", "1"]}}, "strides": {"list": {"i": ["1", "1", "1", "1"]}}, "T": {"type": "DT_FLOAT"}}}, {"name": "StatefulPartitionedCall/EfficientNetV1B0/stack_4_block1_MB_dw_swish/Sigmoid", "op": "Sigmoid", "input": ["StatefulPartitionedCall/EfficientNetV1B0/stack_4_block1_MB_dw_/depthwise"], "attr": {"T": {"type": "DT_FLOAT"}}}, {"name": "StatefulPartitionedCall/EfficientNetV1B0/stack_4_block1_MB_dw_swish/mul", "op": "Mul", "input": ["StatefulPartitionedCall/EfficientNetV1B0/stack_4_block1_MB_dw_/depthwise", "StatefulPartitionedCall/EfficientNetV1B0/stack_4_block1_MB_dw_swish/Sigmoid"], "attr": {"T": {"type": "DT_FLOAT"}}}, {"name": "StatefulPartitionedCall/EfficientNetV1B0/tf.math.reduce_mean_73/Mean", "op": "Mean", "input": ["StatefulPartitionedCall/EfficientNetV1B0/stack_4_block1_MB_dw_swish/mul", "StatefulPartitionedCall/EfficientNetV1B0/tf.math.reduce_mean_73/Mean/reduction_indices"], "attr": {"keep_dims": {"b": true}, "T": {"type": "DT_FLOAT"}, "Tidx": {"type": "DT_INT32"}}}, {"name": "StatefulPartitionedCall/EfficientNetV1B0/stack_4_block1_se_1_conv/BiasAdd", "op": "_FusedConv2D", "input": ["StatefulPartitionedCall/EfficientNetV1B0/tf.math.reduce_mean_73/Mean", "StatefulPartitionedCall/EfficientNetV1B0/stack_4_block1_se_1_conv/Conv2D/ReadVariableOp", "StatefulPartitionedCall/EfficientNetV1B0/stack_4_block1_se_1_conv/BiasAdd/ReadVariableOp"], "device": "/device:CPU:0", "attr": {"data_format": {"s": "TkhXQw=="}, "use_cudnn_on_gpu": {"b": true}, "strides": {"list": {"i": ["1", "1", "1", "1"]}}, "epsilon": {"f": 0.0}, "num_args": {"i": "1"}, "fused_ops": {"list": {"s": ["Qmlhc0FkZA=="]}}, "dilations": {"list": {"i": ["1", "1", "1", "1"]}}, "padding": {"s": "VkFMSUQ="}, "T": {"type": "DT_FLOAT"}, "explicit_paddings": {"list": {}}}}, {"name": "StatefulPartitionedCall/EfficientNetV1B0/activation_146/Sigmoid", "op": "Sigmoid", "input": ["StatefulPartitionedCall/EfficientNetV1B0/stack_4_block1_se_1_conv/BiasAdd"], "attr": {"T": {"type": "DT_FLOAT"}}}, {"name": "StatefulPartitionedCall/EfficientNetV1B0/activation_146/mul", "op": "Mul", "input": ["StatefulPartitionedCall/EfficientNetV1B0/stack_4_block1_se_1_conv/BiasAdd", "StatefulPartitionedCall/EfficientNetV1B0/activation_146/Sigmoid"], "attr": {"T": {"type": "DT_FLOAT"}}}, {"name": "StatefulPartitionedCall/EfficientNetV1B0/stack_4_block1_se_2_conv/BiasAdd", "op": "_FusedConv2D", "input": ["StatefulPartitionedCall/EfficientNetV1B0/activation_146/mul", "StatefulPartitionedCall/EfficientNetV1B0/stack_4_block1_se_2_conv/Conv2D/ReadVariableOp", "StatefulPartitionedCall/EfficientNetV1B0/stack_4_block1_se_2_conv/BiasAdd/ReadVariableOp"], "device": "/device:CPU:0", "attr": {"fused_ops": {"list": {"s": ["Qmlhc0FkZA=="]}}, "padding": {"s": "VkFMSUQ="}, "strides": {"list": {"i": ["1", "1", "1", "1"]}}, "use_cudnn_on_gpu": {"b": true}, "data_format": {"s": "TkhXQw=="}, "num_args": {"i": "1"}, "epsilon": {"f": 0.0}, "dilations": {"list": {"i": ["1", "1", "1", "1"]}}, "explicit_paddings": {"list": {}}, "T": {"type": "DT_FLOAT"}}}, {"name": "StatefulPartitionedCall/EfficientNetV1B0/activation_147/Sigmoid", "op": "Sigmoid", "input": ["StatefulPartitionedCall/EfficientNetV1B0/stack_4_block1_se_2_conv/BiasAdd"], "attr": {"T": {"type": "DT_FLOAT"}}}, {"name": "StatefulPartitionedCall/EfficientNetV1B0/multiply_73/mul", "op": "Mul", "input": ["StatefulPartitionedCall/EfficientNetV1B0/stack_4_block1_MB_dw_swish/mul", "StatefulPartitionedCall/EfficientNetV1B0/activation_147/Sigmoid"], "attr": {"T": {"type": "DT_FLOAT"}}}, {"name": "StatefulPartitionedCall/EfficientNetV1B0/stack_4_block1_MB_pw_bn/FusedBatchNormV3", "op": "_FusedConv2D", "input": ["StatefulPartitionedCall/EfficientNetV1B0/multiply_73/mul", "StatefulPartitionedCall/EfficientNetV1B0/stack_4_block1_MB_pw_conv/Conv2D_weights", "StatefulPartitionedCall/EfficientNetV1B0/stack_4_block1_MB_pw_conv/Conv2D_bn_offset"], "device": "/device:CPU:0", "attr": {"num_args": {"i": "1"}, "strides": {"list": {"i": ["1", "1", "1", "1"]}}, "epsilon": {"f": 0.0}, "dilations": {"list": {"i": ["1", "1", "1", "1"]}}, "padding": {"s": "VkFMSUQ="}, "fused_ops": {"list": {"s": ["Qmlhc0FkZA=="]}}, "use_cudnn_on_gpu": {"b": true}, "data_format": {"s": "TkhXQw=="}, "T": {"type": "DT_FLOAT"}, "explicit_paddings": {"list": {}}}}, {"name": "StatefulPartitionedCall/EfficientNetV1B0/add_40/add", "op": "AddV2", "input": ["StatefulPartitionedCall/EfficientNetV1B0/stack_4_block0_MB_pw_bn/FusedBatchNormV3", "StatefulPartitionedCall/EfficientNetV1B0/stack_4_block1_MB_pw_bn/FusedBatchNormV3"], "attr": {"T": {"type": "DT_FLOAT"}}}, {"name": "StatefulPartitionedCall/EfficientNetV1B0/stack_4_block2_sortcut_bn/FusedBatchNormV3", "op": "_FusedConv2D", "input": ["StatefulPartitionedCall/EfficientNetV1B0/add_40/add", "StatefulPartitionedCall/EfficientNetV1B0/stack_4_block2_sortcut_conv/Conv2D_weights", "StatefulPartitionedCall/EfficientNetV1B0/stack_4_block2_sortcut_conv/Conv2D_bn_offset"], "device": "/device:CPU:0", "attr": {"fused_ops": {"list": {"s": ["Qmlhc0FkZA=="]}}, "use_cudnn_on_gpu": {"b": true}, "data_format": {"s": "TkhXQw=="}, "num_args": {"i": "1"}, "T": {"type": "DT_FLOAT"}, "padding": {"s": "VkFMSUQ="}, "explicit_paddings": {"list": {}}, "epsilon": {"f": 0.0}, "dilations": {"list": {"i": ["1", "1", "1", "1"]}}, "strides": {"list": {"i": ["1", "1", "1", "1"]}}}}, {"name": "StatefulPartitionedCall/EfficientNetV1B0/stack_4_block2_sortcut_swish/Sigmoid", "op": "Sigmoid", "input": ["StatefulPartitionedCall/EfficientNetV1B0/stack_4_block2_sortcut_bn/FusedBatchNormV3"], "attr": {"T": {"type": "DT_FLOAT"}}}, {"name": "StatefulPartitionedCall/EfficientNetV1B0/stack_4_block2_sortcut_swish/mul", "op": "Mul", "input": ["StatefulPartitionedCall/EfficientNetV1B0/stack_4_block2_sortcut_bn/FusedBatchNormV3", "StatefulPartitionedCall/EfficientNetV1B0/stack_4_block2_sortcut_swish/Sigmoid"], "attr": {"T": {"type": "DT_FLOAT"}}}, {"name": "StatefulPartitionedCall/EfficientNetV1B0/stack_4_block2_MB_dw_/depthwise", "op": "FusedDepthwiseConv2dNative", "input": ["StatefulPartitionedCall/EfficientNetV1B0/stack_4_block2_sortcut_swish/mul", "StatefulPartitionedCall/EfficientNetV1B0/stack_4_block2_MB_dw_/depthwise_weights", "StatefulPartitionedCall/EfficientNetV1B0/stack_4_block2_MB_dw_/depthwise_bn_offset"], "attr": {"fused_ops": {"list": {"s": ["Qmlhc0FkZA=="]}}, "explicit_paddings": {"list": {}}, "num_args": {"i": "1"}, "padding": {"s": "U0FNRQ=="}, "dilations": {"list": {"i": ["1", "1", "1", "1"]}}, "data_format": {"s": "TkhXQw=="}, "T": {"type": "DT_FLOAT"}, "strides": {"list": {"i": ["1", "1", "1", "1"]}}}}, {"name": "StatefulPartitionedCall/EfficientNetV1B0/stack_4_block2_MB_dw_swish/Sigmoid", "op": "Sigmoid", "input": ["StatefulPartitionedCall/EfficientNetV1B0/stack_4_block2_MB_dw_/depthwise"], "attr": {"T": {"type": "DT_FLOAT"}}}, {"name": "StatefulPartitionedCall/EfficientNetV1B0/stack_4_block2_MB_dw_swish/mul", "op": "Mul", "input": ["StatefulPartitionedCall/EfficientNetV1B0/stack_4_block2_MB_dw_/depthwise", "StatefulPartitionedCall/EfficientNetV1B0/stack_4_block2_MB_dw_swish/Sigmoid"], "attr": {"T": {"type": "DT_FLOAT"}}}, {"name": "StatefulPartitionedCall/EfficientNetV1B0/tf.math.reduce_mean_74/Mean", "op": "Mean", "input": ["StatefulPartitionedCall/EfficientNetV1B0/stack_4_block2_MB_dw_swish/mul", "StatefulPartitionedCall/EfficientNetV1B0/tf.math.reduce_mean_74/Mean/reduction_indices"], "attr": {"keep_dims": {"b": true}, "T": {"type": "DT_FLOAT"}, "Tidx": {"type": "DT_INT32"}}}, {"name": "StatefulPartitionedCall/EfficientNetV1B0/stack_4_block2_se_1_conv/BiasAdd", "op": "_FusedConv2D", "input": ["StatefulPartitionedCall/EfficientNetV1B0/tf.math.reduce_mean_74/Mean", "StatefulPartitionedCall/EfficientNetV1B0/stack_4_block2_se_1_conv/Conv2D/ReadVariableOp", "StatefulPartitionedCall/EfficientNetV1B0/stack_4_block2_se_1_conv/BiasAdd/ReadVariableOp"], "device": "/device:CPU:0", "attr": {"strides": {"list": {"i": ["1", "1", "1", "1"]}}, "padding": {"s": "VkFMSUQ="}, "explicit_paddings": {"list": {}}, "num_args": {"i": "1"}, "epsilon": {"f": 0.0}, "T": {"type": "DT_FLOAT"}, "dilations": {"list": {"i": ["1", "1", "1", "1"]}}, "fused_ops": {"list": {"s": ["Qmlhc0FkZA=="]}}, "use_cudnn_on_gpu": {"b": true}, "data_format": {"s": "TkhXQw=="}}}, {"name": "StatefulPartitionedCall/EfficientNetV1B0/activation_148/Sigmoid", "op": "Sigmoid", "input": ["StatefulPartitionedCall/EfficientNetV1B0/stack_4_block2_se_1_conv/BiasAdd"], "attr": {"T": {"type": "DT_FLOAT"}}}, {"name": "StatefulPartitionedCall/EfficientNetV1B0/activation_148/mul", "op": "Mul", "input": ["StatefulPartitionedCall/EfficientNetV1B0/stack_4_block2_se_1_conv/BiasAdd", "StatefulPartitionedCall/EfficientNetV1B0/activation_148/Sigmoid"], "attr": {"T": {"type": "DT_FLOAT"}}}, {"name": "StatefulPartitionedCall/EfficientNetV1B0/stack_4_block2_se_2_conv/BiasAdd", "op": "_FusedConv2D", "input": ["StatefulPartitionedCall/EfficientNetV1B0/activation_148/mul", "StatefulPartitionedCall/EfficientNetV1B0/stack_4_block2_se_2_conv/Conv2D/ReadVariableOp", "StatefulPartitionedCall/EfficientNetV1B0/stack_4_block2_se_2_conv/BiasAdd/ReadVariableOp"], "device": "/device:CPU:0", "attr": {"explicit_paddings": {"list": {}}, "fused_ops": {"list": {"s": ["Qmlhc0FkZA=="]}}, "num_args": {"i": "1"}, "padding": {"s": "VkFMSUQ="}, "epsilon": {"f": 0.0}, "dilations": {"list": {"i": ["1", "1", "1", "1"]}}, "use_cudnn_on_gpu": {"b": true}, "T": {"type": "DT_FLOAT"}, "data_format": {"s": "TkhXQw=="}, "strides": {"list": {"i": ["1", "1", "1", "1"]}}}}, {"name": "StatefulPartitionedCall/EfficientNetV1B0/activation_149/Sigmoid", "op": "Sigmoid", "input": ["StatefulPartitionedCall/EfficientNetV1B0/stack_4_block2_se_2_conv/BiasAdd"], "attr": {"T": {"type": "DT_FLOAT"}}}, {"name": "StatefulPartitionedCall/EfficientNetV1B0/multiply_74/mul", "op": "Mul", "input": ["StatefulPartitionedCall/EfficientNetV1B0/stack_4_block2_MB_dw_swish/mul", "StatefulPartitionedCall/EfficientNetV1B0/activation_149/Sigmoid"], "attr": {"T": {"type": "DT_FLOAT"}}}, {"name": "StatefulPartitionedCall/EfficientNetV1B0/stack_4_block2_MB_pw_bn/FusedBatchNormV3", "op": "_FusedConv2D", "input": ["StatefulPartitionedCall/EfficientNetV1B0/multiply_74/mul", "StatefulPartitionedCall/EfficientNetV1B0/stack_4_block2_MB_pw_conv/Conv2D_weights", "StatefulPartitionedCall/EfficientNetV1B0/stack_4_block2_MB_pw_conv/Conv2D_bn_offset"], "device": "/device:CPU:0", "attr": {"num_args": {"i": "1"}, "epsilon": {"f": 0.0}, "strides": {"list": {"i": ["1", "1", "1", "1"]}}, "dilations": {"list": {"i": ["1", "1", "1", "1"]}}, "data_format": {"s": "TkhXQw=="}, "use_cudnn_on_gpu": {"b": true}, "padding": {"s": "VkFMSUQ="}, "fused_ops": {"list": {"s": ["Qmlhc0FkZA=="]}}, "explicit_paddings": {"list": {}}, "T": {"type": "DT_FLOAT"}}}, {"name": "StatefulPartitionedCall/EfficientNetV1B0/add_41/add", "op": "AddV2", "input": ["StatefulPartitionedCall/EfficientNetV1B0/add_40/add", "StatefulPartitionedCall/EfficientNetV1B0/stack_4_block2_MB_pw_bn/FusedBatchNormV3"], "attr": {"T": {"type": "DT_FLOAT"}}}, {"name": "StatefulPartitionedCall/EfficientNetV1B0/stack_5_block0_sortcut_bn/FusedBatchNormV3", "op": "_FusedConv2D", "input": ["StatefulPartitionedCall/EfficientNetV1B0/add_41/add", "StatefulPartitionedCall/EfficientNetV1B0/stack_5_block0_sortcut_conv/Conv2D_weights", "StatefulPartitionedCall/EfficientNetV1B0/stack_5_block0_sortcut_conv/Conv2D_bn_offset"], "device": "/device:CPU:0", "attr": {"num_args": {"i": "1"}, "T": {"type": "DT_FLOAT"}, "fused_ops": {"list": {"s": ["Qmlhc0FkZA=="]}}, "data_format": {"s": "TkhXQw=="}, "padding": {"s": "VkFMSUQ="}, "use_cudnn_on_gpu": {"b": true}, "strides": {"list": {"i": ["1", "1", "1", "1"]}}, "explicit_paddings": {"list": {}}, "epsilon": {"f": 0.0}, "dilations": {"list": {"i": ["1", "1", "1", "1"]}}}}, {"name": "StatefulPartitionedCall/EfficientNetV1B0/stack_5_block0_sortcut_swish/Sigmoid", "op": "Sigmoid", "input": ["StatefulPartitionedCall/EfficientNetV1B0/stack_5_block0_sortcut_bn/FusedBatchNormV3"], "attr": {"T": {"type": "DT_FLOAT"}}}, {"name": "StatefulPartitionedCall/EfficientNetV1B0/stack_5_block0_sortcut_swish/mul", "op": "Mul", "input": ["StatefulPartitionedCall/EfficientNetV1B0/stack_5_block0_sortcut_bn/FusedBatchNormV3", "StatefulPartitionedCall/EfficientNetV1B0/stack_5_block0_sortcut_swish/Sigmoid"], "attr": {"T": {"type": "DT_FLOAT"}}}, {"name": "StatefulPartitionedCall/EfficientNetV1B0/stack_5_block0_MB_dw_/depthwise", "op": "FusedDepthwiseConv2dNative", "input": ["StatefulPartitionedCall/EfficientNetV1B0/stack_5_block0_sortcut_swish/mul", "StatefulPartitionedCall/EfficientNetV1B0/stack_5_block0_MB_dw_/depthwise_weights", "StatefulPartitionedCall/EfficientNetV1B0/stack_5_block0_MB_dw_/depthwise_bn_offset"], "attr": {"data_format": {"s": "TkhXQw=="}, "T": {"type": "DT_FLOAT"}, "fused_ops": {"list": {"s": ["Qmlhc0FkZA=="]}}, "strides": {"list": {"i": ["1", "2", "2", "1"]}}, "explicit_paddings": {"list": {}}, "padding": {"s": "U0FNRQ=="}, "dilations": {"list": {"i": ["1", "1", "1", "1"]}}, "num_args": {"i": "1"}}}, {"name": "StatefulPartitionedCall/EfficientNetV1B0/stack_5_block0_MB_dw_swish/Sigmoid", "op": "Sigmoid", "input": ["StatefulPartitionedCall/EfficientNetV1B0/stack_5_block0_MB_dw_/depthwise"], "attr": {"T": {"type": "DT_FLOAT"}}}, {"name": "StatefulPartitionedCall/EfficientNetV1B0/stack_5_block0_MB_dw_swish/mul", "op": "Mul", "input": ["StatefulPartitionedCall/EfficientNetV1B0/stack_5_block0_MB_dw_/depthwise", "StatefulPartitionedCall/EfficientNetV1B0/stack_5_block0_MB_dw_swish/Sigmoid"], "attr": {"T": {"type": "DT_FLOAT"}}}, {"name": "StatefulPartitionedCall/EfficientNetV1B0/tf.math.reduce_mean_75/Mean", "op": "Mean", "input": ["StatefulPartitionedCall/EfficientNetV1B0/stack_5_block0_MB_dw_swish/mul", "StatefulPartitionedCall/EfficientNetV1B0/tf.math.reduce_mean_75/Mean/reduction_indices"], "attr": {"Tidx": {"type": "DT_INT32"}, "keep_dims": {"b": true}, "T": {"type": "DT_FLOAT"}}}, {"name": "StatefulPartitionedCall/EfficientNetV1B0/stack_5_block0_se_1_conv/BiasAdd", "op": "_FusedConv2D", "input": ["StatefulPartitionedCall/EfficientNetV1B0/tf.math.reduce_mean_75/Mean", "StatefulPartitionedCall/EfficientNetV1B0/stack_5_block0_se_1_conv/Conv2D/ReadVariableOp", "StatefulPartitionedCall/EfficientNetV1B0/stack_5_block0_se_1_conv/BiasAdd/ReadVariableOp"], "device": "/device:CPU:0", "attr": {"use_cudnn_on_gpu": {"b": true}, "data_format": {"s": "TkhXQw=="}, "strides": {"list": {"i": ["1", "1", "1", "1"]}}, "num_args": {"i": "1"}, "T": {"type": "DT_FLOAT"}, "epsilon": {"f": 0.0}, "fused_ops": {"list": {"s": ["Qmlhc0FkZA=="]}}, "dilations": {"list": {"i": ["1", "1", "1", "1"]}}, "explicit_paddings": {"list": {}}, "padding": {"s": "VkFMSUQ="}}}, {"name": "StatefulPartitionedCall/EfficientNetV1B0/activation_150/Sigmoid", "op": "Sigmoid", "input": ["StatefulPartitionedCall/EfficientNetV1B0/stack_5_block0_se_1_conv/BiasAdd"], "attr": {"T": {"type": "DT_FLOAT"}}}, {"name": "StatefulPartitionedCall/EfficientNetV1B0/activation_150/mul", "op": "Mul", "input": ["StatefulPartitionedCall/EfficientNetV1B0/stack_5_block0_se_1_conv/BiasAdd", "StatefulPartitionedCall/EfficientNetV1B0/activation_150/Sigmoid"], "attr": {"T": {"type": "DT_FLOAT"}}}, {"name": "StatefulPartitionedCall/EfficientNetV1B0/stack_5_block0_se_2_conv/BiasAdd", "op": "_FusedConv2D", "input": ["StatefulPartitionedCall/EfficientNetV1B0/activation_150/mul", "StatefulPartitionedCall/EfficientNetV1B0/stack_5_block0_se_2_conv/Conv2D/ReadVariableOp", "StatefulPartitionedCall/EfficientNetV1B0/stack_5_block0_se_2_conv/BiasAdd/ReadVariableOp"], "device": "/device:CPU:0", "attr": {"padding": {"s": "VkFMSUQ="}, "use_cudnn_on_gpu": {"b": true}, "strides": {"list": {"i": ["1", "1", "1", "1"]}}, "epsilon": {"f": 0.0}, "explicit_paddings": {"list": {}}, "dilations": {"list": {"i": ["1", "1", "1", "1"]}}, "num_args": {"i": "1"}, "T": {"type": "DT_FLOAT"}, "fused_ops": {"list": {"s": ["Qmlhc0FkZA=="]}}, "data_format": {"s": "TkhXQw=="}}}, {"name": "StatefulPartitionedCall/EfficientNetV1B0/activation_151/Sigmoid", "op": "Sigmoid", "input": ["StatefulPartitionedCall/EfficientNetV1B0/stack_5_block0_se_2_conv/BiasAdd"], "attr": {"T": {"type": "DT_FLOAT"}}}, {"name": "StatefulPartitionedCall/EfficientNetV1B0/multiply_75/mul", "op": "Mul", "input": ["StatefulPartitionedCall/EfficientNetV1B0/stack_5_block0_MB_dw_swish/mul", "StatefulPartitionedCall/EfficientNetV1B0/activation_151/Sigmoid"], "attr": {"T": {"type": "DT_FLOAT"}}}, {"name": "StatefulPartitionedCall/EfficientNetV1B0/stack_5_block0_MB_pw_bn/FusedBatchNormV3", "op": "_FusedConv2D", "input": ["StatefulPartitionedCall/EfficientNetV1B0/multiply_75/mul", "StatefulPartitionedCall/EfficientNetV1B0/stack_5_block0_MB_pw_conv/Conv2D_weights", "StatefulPartitionedCall/EfficientNetV1B0/stack_5_block0_MB_pw_conv/Conv2D_bn_offset"], "device": "/device:CPU:0", "attr": {"dilations": {"list": {"i": ["1", "1", "1", "1"]}}, "T": {"type": "DT_FLOAT"}, "num_args": {"i": "1"}, "strides": {"list": {"i": ["1", "1", "1", "1"]}}, "data_format": {"s": "TkhXQw=="}, "padding": {"s": "VkFMSUQ="}, "use_cudnn_on_gpu": {"b": true}, "fused_ops": {"list": {"s": ["Qmlhc0FkZA=="]}}, "explicit_paddings": {"list": {}}, "epsilon": {"f": 0.0}}}, {"name": "StatefulPartitionedCall/EfficientNetV1B0/stack_5_block1_sortcut_bn/FusedBatchNormV3", "op": "_FusedConv2D", "input": ["StatefulPartitionedCall/EfficientNetV1B0/stack_5_block0_MB_pw_bn/FusedBatchNormV3", "StatefulPartitionedCall/EfficientNetV1B0/stack_5_block1_sortcut_conv/Conv2D_weights", "StatefulPartitionedCall/EfficientNetV1B0/stack_5_block1_sortcut_conv/Conv2D_bn_offset"], "device": "/device:CPU:0", "attr": {"padding": {"s": "VkFMSUQ="}, "use_cudnn_on_gpu": {"b": true}, "fused_ops": {"list": {"s": ["Qmlhc0FkZA=="]}}, "epsilon": {"f": 0.0}, "explicit_paddings": {"list": {}}, "dilations": {"list": {"i": ["1", "1", "1", "1"]}}, "T": {"type": "DT_FLOAT"}, "num_args": {"i": "1"}, "data_format": {"s": "TkhXQw=="}, "strides": {"list": {"i": ["1", "1", "1", "1"]}}}}, {"name": "StatefulPartitionedCall/EfficientNetV1B0/stack_5_block1_sortcut_swish/Sigmoid", "op": "Sigmoid", "input": ["StatefulPartitionedCall/EfficientNetV1B0/stack_5_block1_sortcut_bn/FusedBatchNormV3"], "attr": {"T": {"type": "DT_FLOAT"}}}, {"name": "StatefulPartitionedCall/EfficientNetV1B0/stack_5_block1_sortcut_swish/mul", "op": "Mul", "input": ["StatefulPartitionedCall/EfficientNetV1B0/stack_5_block1_sortcut_bn/FusedBatchNormV3", "StatefulPartitionedCall/EfficientNetV1B0/stack_5_block1_sortcut_swish/Sigmoid"], "attr": {"T": {"type": "DT_FLOAT"}}}, {"name": "StatefulPartitionedCall/EfficientNetV1B0/stack_5_block1_MB_dw_/depthwise", "op": "FusedDepthwiseConv2dNative", "input": ["StatefulPartitionedCall/EfficientNetV1B0/stack_5_block1_sortcut_swish/mul", "StatefulPartitionedCall/EfficientNetV1B0/stack_5_block1_MB_dw_/depthwise_weights", "StatefulPartitionedCall/EfficientNetV1B0/stack_5_block1_MB_dw_/depthwise_bn_offset"], "attr": {"padding": {"s": "U0FNRQ=="}, "num_args": {"i": "1"}, "T": {"type": "DT_FLOAT"}, "dilations": {"list": {"i": ["1", "1", "1", "1"]}}, "strides": {"list": {"i": ["1", "1", "1", "1"]}}, "explicit_paddings": {"list": {}}, "fused_ops": {"list": {"s": ["Qmlhc0FkZA=="]}}, "data_format": {"s": "TkhXQw=="}}}, {"name": "StatefulPartitionedCall/EfficientNetV1B0/stack_5_block1_MB_dw_swish/Sigmoid", "op": "Sigmoid", "input": ["StatefulPartitionedCall/EfficientNetV1B0/stack_5_block1_MB_dw_/depthwise"], "attr": {"T": {"type": "DT_FLOAT"}}}, {"name": "StatefulPartitionedCall/EfficientNetV1B0/stack_5_block1_MB_dw_swish/mul", "op": "Mul", "input": ["StatefulPartitionedCall/EfficientNetV1B0/stack_5_block1_MB_dw_/depthwise", "StatefulPartitionedCall/EfficientNetV1B0/stack_5_block1_MB_dw_swish/Sigmoid"], "attr": {"T": {"type": "DT_FLOAT"}}}, {"name": "StatefulPartitionedCall/EfficientNetV1B0/tf.math.reduce_mean_76/Mean", "op": "Mean", "input": ["StatefulPartitionedCall/EfficientNetV1B0/stack_5_block1_MB_dw_swish/mul", "StatefulPartitionedCall/EfficientNetV1B0/tf.math.reduce_mean_76/Mean/reduction_indices"], "attr": {"T": {"type": "DT_FLOAT"}, "keep_dims": {"b": true}, "Tidx": {"type": "DT_INT32"}}}, {"name": "StatefulPartitionedCall/EfficientNetV1B0/stack_5_block1_se_1_conv/BiasAdd", "op": "_FusedConv2D", "input": ["StatefulPartitionedCall/EfficientNetV1B0/tf.math.reduce_mean_76/Mean", "StatefulPartitionedCall/EfficientNetV1B0/stack_5_block1_se_1_conv/Conv2D/ReadVariableOp", "StatefulPartitionedCall/EfficientNetV1B0/stack_5_block1_se_1_conv/BiasAdd/ReadVariableOp"], "device": "/device:CPU:0", "attr": {"fused_ops": {"list": {"s": ["Qmlhc0FkZA=="]}}, "use_cudnn_on_gpu": {"b": true}, "data_format": {"s": "TkhXQw=="}, "num_args": {"i": "1"}, "T": {"type": "DT_FLOAT"}, "epsilon": {"f": 0.0}, "padding": {"s": "VkFMSUQ="}, "dilations": {"list": {"i": ["1", "1", "1", "1"]}}, "explicit_paddings": {"list": {}}, "strides": {"list": {"i": ["1", "1", "1", "1"]}}}}, {"name": "StatefulPartitionedCall/EfficientNetV1B0/activation_152/Sigmoid", "op": "Sigmoid", "input": ["StatefulPartitionedCall/EfficientNetV1B0/stack_5_block1_se_1_conv/BiasAdd"], "attr": {"T": {"type": "DT_FLOAT"}}}, {"name": "StatefulPartitionedCall/EfficientNetV1B0/activation_152/mul", "op": "Mul", "input": ["StatefulPartitionedCall/EfficientNetV1B0/stack_5_block1_se_1_conv/BiasAdd", "StatefulPartitionedCall/EfficientNetV1B0/activation_152/Sigmoid"], "attr": {"T": {"type": "DT_FLOAT"}}}, {"name": "StatefulPartitionedCall/EfficientNetV1B0/stack_5_block1_se_2_conv/BiasAdd", "op": "_FusedConv2D", "input": ["StatefulPartitionedCall/EfficientNetV1B0/activation_152/mul", "StatefulPartitionedCall/EfficientNetV1B0/stack_5_block1_se_2_conv/Conv2D/ReadVariableOp", "StatefulPartitionedCall/EfficientNetV1B0/stack_5_block1_se_2_conv/BiasAdd/ReadVariableOp"], "device": "/device:CPU:0", "attr": {"num_args": {"i": "1"}, "T": {"type": "DT_FLOAT"}, "padding": {"s": "VkFMSUQ="}, "epsilon": {"f": 0.0}, "dilations": {"list": {"i": ["1", "1", "1", "1"]}}, "explicit_paddings": {"list": {}}, "strides": {"list": {"i": ["1", "1", "1", "1"]}}, "fused_ops": {"list": {"s": ["Qmlhc0FkZA=="]}}, "use_cudnn_on_gpu": {"b": true}, "data_format": {"s": "TkhXQw=="}}}, {"name": "StatefulPartitionedCall/EfficientNetV1B0/activation_153/Sigmoid", "op": "Sigmoid", "input": ["StatefulPartitionedCall/EfficientNetV1B0/stack_5_block1_se_2_conv/BiasAdd"], "attr": {"T": {"type": "DT_FLOAT"}}}, {"name": "StatefulPartitionedCall/EfficientNetV1B0/multiply_76/mul", "op": "Mul", "input": ["StatefulPartitionedCall/EfficientNetV1B0/stack_5_block1_MB_dw_swish/mul", "StatefulPartitionedCall/EfficientNetV1B0/activation_153/Sigmoid"], "attr": {"T": {"type": "DT_FLOAT"}}}, {"name": "StatefulPartitionedCall/EfficientNetV1B0/stack_5_block1_MB_pw_bn/FusedBatchNormV3", "op": "_FusedConv2D", "input": ["StatefulPartitionedCall/EfficientNetV1B0/multiply_76/mul", "StatefulPartitionedCall/EfficientNetV1B0/stack_5_block1_MB_pw_conv/Conv2D_weights", "StatefulPartitionedCall/EfficientNetV1B0/stack_5_block1_MB_pw_conv/Conv2D_bn_offset"], "device": "/device:CPU:0", "attr": {"data_format": {"s": "TkhXQw=="}, "strides": {"list": {"i": ["1", "1", "1", "1"]}}, "use_cudnn_on_gpu": {"b": true}, "epsilon": {"f": 0.0}, "dilations": {"list": {"i": ["1", "1", "1", "1"]}}, "fused_ops": {"list": {"s": ["Qmlhc0FkZA=="]}}, "num_args": {"i": "1"}, "padding": {"s": "VkFMSUQ="}, "T": {"type": "DT_FLOAT"}, "explicit_paddings": {"list": {}}}}, {"name": "StatefulPartitionedCall/EfficientNetV1B0/add_42/add", "op": "AddV2", "input": ["StatefulPartitionedCall/EfficientNetV1B0/stack_5_block0_MB_pw_bn/FusedBatchNormV3", "StatefulPartitionedCall/EfficientNetV1B0/stack_5_block1_MB_pw_bn/FusedBatchNormV3"], "attr": {"T": {"type": "DT_FLOAT"}}}, {"name": "StatefulPartitionedCall/EfficientNetV1B0/stack_5_block2_sortcut_bn/FusedBatchNormV3", "op": "_FusedConv2D", "input": ["StatefulPartitionedCall/EfficientNetV1B0/add_42/add", "StatefulPartitionedCall/EfficientNetV1B0/stack_5_block2_sortcut_conv/Conv2D_weights", "StatefulPartitionedCall/EfficientNetV1B0/stack_5_block2_sortcut_conv/Conv2D_bn_offset"], "device": "/device:CPU:0", "attr": {"epsilon": {"f": 0.0}, "strides": {"list": {"i": ["1", "1", "1", "1"]}}, "explicit_paddings": {"list": {}}, "T": {"type": "DT_FLOAT"}, "data_format": {"s": "TkhXQw=="}, "padding": {"s": "VkFMSUQ="}, "use_cudnn_on_gpu": {"b": true}, "fused_ops": {"list": {"s": ["Qmlhc0FkZA=="]}}, "dilations": {"list": {"i": ["1", "1", "1", "1"]}}, "num_args": {"i": "1"}}}, {"name": "StatefulPartitionedCall/EfficientNetV1B0/stack_5_block2_sortcut_swish/Sigmoid", "op": "Sigmoid", "input": ["StatefulPartitionedCall/EfficientNetV1B0/stack_5_block2_sortcut_bn/FusedBatchNormV3"], "attr": {"T": {"type": "DT_FLOAT"}}}, {"name": "StatefulPartitionedCall/EfficientNetV1B0/stack_5_block2_sortcut_swish/mul", "op": "Mul", "input": ["StatefulPartitionedCall/EfficientNetV1B0/stack_5_block2_sortcut_bn/FusedBatchNormV3", "StatefulPartitionedCall/EfficientNetV1B0/stack_5_block2_sortcut_swish/Sigmoid"], "attr": {"T": {"type": "DT_FLOAT"}}}, {"name": "StatefulPartitionedCall/EfficientNetV1B0/stack_5_block2_MB_dw_/depthwise", "op": "FusedDepthwiseConv2dNative", "input": ["StatefulPartitionedCall/EfficientNetV1B0/stack_5_block2_sortcut_swish/mul", "StatefulPartitionedCall/EfficientNetV1B0/stack_5_block2_MB_dw_/depthwise_weights", "StatefulPartitionedCall/EfficientNetV1B0/stack_5_block2_MB_dw_/depthwise_bn_offset"], "attr": {"padding": {"s": "U0FNRQ=="}, "data_format": {"s": "TkhXQw=="}, "strides": {"list": {"i": ["1", "1", "1", "1"]}}, "num_args": {"i": "1"}, "dilations": {"list": {"i": ["1", "1", "1", "1"]}}, "explicit_paddings": {"list": {}}, "T": {"type": "DT_FLOAT"}, "fused_ops": {"list": {"s": ["Qmlhc0FkZA=="]}}}}, {"name": "StatefulPartitionedCall/EfficientNetV1B0/stack_5_block2_MB_dw_swish/Sigmoid", "op": "Sigmoid", "input": ["StatefulPartitionedCall/EfficientNetV1B0/stack_5_block2_MB_dw_/depthwise"], "attr": {"T": {"type": "DT_FLOAT"}}}, {"name": "StatefulPartitionedCall/EfficientNetV1B0/stack_5_block2_MB_dw_swish/mul", "op": "Mul", "input": ["StatefulPartitionedCall/EfficientNetV1B0/stack_5_block2_MB_dw_/depthwise", "StatefulPartitionedCall/EfficientNetV1B0/stack_5_block2_MB_dw_swish/Sigmoid"], "attr": {"T": {"type": "DT_FLOAT"}}}, {"name": "StatefulPartitionedCall/EfficientNetV1B0/tf.math.reduce_mean_77/Mean", "op": "Mean", "input": ["StatefulPartitionedCall/EfficientNetV1B0/stack_5_block2_MB_dw_swish/mul", "StatefulPartitionedCall/EfficientNetV1B0/tf.math.reduce_mean_77/Mean/reduction_indices"], "attr": {"Tidx": {"type": "DT_INT32"}, "T": {"type": "DT_FLOAT"}, "keep_dims": {"b": true}}}, {"name": "StatefulPartitionedCall/EfficientNetV1B0/stack_5_block2_se_1_conv/BiasAdd", "op": "_FusedConv2D", "input": ["StatefulPartitionedCall/EfficientNetV1B0/tf.math.reduce_mean_77/Mean", "StatefulPartitionedCall/EfficientNetV1B0/stack_5_block2_se_1_conv/Conv2D/ReadVariableOp", "StatefulPartitionedCall/EfficientNetV1B0/stack_5_block2_se_1_conv/BiasAdd/ReadVariableOp"], "device": "/device:CPU:0", "attr": {"data_format": {"s": "TkhXQw=="}, "use_cudnn_on_gpu": {"b": true}, "padding": {"s": "VkFMSUQ="}, "num_args": {"i": "1"}, "strides": {"list": {"i": ["1", "1", "1", "1"]}}, "dilations": {"list": {"i": ["1", "1", "1", "1"]}}, "epsilon": {"f": 0.0}, "T": {"type": "DT_FLOAT"}, "explicit_paddings": {"list": {}}, "fused_ops": {"list": {"s": ["Qmlhc0FkZA=="]}}}}, {"name": "StatefulPartitionedCall/EfficientNetV1B0/activation_154/Sigmoid", "op": "Sigmoid", "input": ["StatefulPartitionedCall/EfficientNetV1B0/stack_5_block2_se_1_conv/BiasAdd"], "attr": {"T": {"type": "DT_FLOAT"}}}, {"name": "StatefulPartitionedCall/EfficientNetV1B0/activation_154/mul", "op": "Mul", "input": ["StatefulPartitionedCall/EfficientNetV1B0/stack_5_block2_se_1_conv/BiasAdd", "StatefulPartitionedCall/EfficientNetV1B0/activation_154/Sigmoid"], "attr": {"T": {"type": "DT_FLOAT"}}}, {"name": "StatefulPartitionedCall/EfficientNetV1B0/stack_5_block2_se_2_conv/BiasAdd", "op": "_FusedConv2D", "input": ["StatefulPartitionedCall/EfficientNetV1B0/activation_154/mul", "StatefulPartitionedCall/EfficientNetV1B0/stack_5_block2_se_2_conv/Conv2D/ReadVariableOp", "StatefulPartitionedCall/EfficientNetV1B0/stack_5_block2_se_2_conv/BiasAdd/ReadVariableOp"], "device": "/device:CPU:0", "attr": {"data_format": {"s": "TkhXQw=="}, "padding": {"s": "VkFMSUQ="}, "epsilon": {"f": 0.0}, "use_cudnn_on_gpu": {"b": true}, "num_args": {"i": "1"}, "fused_ops": {"list": {"s": ["Qmlhc0FkZA=="]}}, "dilations": {"list": {"i": ["1", "1", "1", "1"]}}, "T": {"type": "DT_FLOAT"}, "explicit_paddings": {"list": {}}, "strides": {"list": {"i": ["1", "1", "1", "1"]}}}}, {"name": "StatefulPartitionedCall/EfficientNetV1B0/activation_155/Sigmoid", "op": "Sigmoid", "input": ["StatefulPartitionedCall/EfficientNetV1B0/stack_5_block2_se_2_conv/BiasAdd"], "attr": {"T": {"type": "DT_FLOAT"}}}, {"name": "StatefulPartitionedCall/EfficientNetV1B0/multiply_77/mul", "op": "Mul", "input": ["StatefulPartitionedCall/EfficientNetV1B0/stack_5_block2_MB_dw_swish/mul", "StatefulPartitionedCall/EfficientNetV1B0/activation_155/Sigmoid"], "attr": {"T": {"type": "DT_FLOAT"}}}, {"name": "StatefulPartitionedCall/EfficientNetV1B0/stack_5_block2_MB_pw_bn/FusedBatchNormV3", "op": "_FusedConv2D", "input": ["StatefulPartitionedCall/EfficientNetV1B0/multiply_77/mul", "StatefulPartitionedCall/EfficientNetV1B0/stack_5_block2_MB_pw_conv/Conv2D_weights", "StatefulPartitionedCall/EfficientNetV1B0/stack_5_block2_MB_pw_conv/Conv2D_bn_offset"], "device": "/device:CPU:0", "attr": {"num_args": {"i": "1"}, "T": {"type": "DT_FLOAT"}, "fused_ops": {"list": {"s": ["Qmlhc0FkZA=="]}}, "dilations": {"list": {"i": ["1", "1", "1", "1"]}}, "epsilon": {"f": 0.0}, "explicit_paddings": {"list": {}}, "padding": {"s": "VkFMSUQ="}, "use_cudnn_on_gpu": {"b": true}, "data_format": {"s": "TkhXQw=="}, "strides": {"list": {"i": ["1", "1", "1", "1"]}}}}, {"name": "StatefulPartitionedCall/EfficientNetV1B0/add_43/add", "op": "AddV2", "input": ["StatefulPartitionedCall/EfficientNetV1B0/add_42/add", "StatefulPartitionedCall/EfficientNetV1B0/stack_5_block2_MB_pw_bn/FusedBatchNormV3"], "attr": {"T": {"type": "DT_FLOAT"}}}, {"name": "StatefulPartitionedCall/EfficientNetV1B0/stack_5_block3_sortcut_bn/FusedBatchNormV3", "op": "_FusedConv2D", "input": ["StatefulPartitionedCall/EfficientNetV1B0/add_43/add", "StatefulPartitionedCall/EfficientNetV1B0/stack_5_block3_sortcut_conv/Conv2D_weights", "StatefulPartitionedCall/EfficientNetV1B0/stack_5_block3_sortcut_conv/Conv2D_bn_offset"], "device": "/device:CPU:0", "attr": {"num_args": {"i": "1"}, "fused_ops": {"list": {"s": ["Qmlhc0FkZA=="]}}, "dilations": {"list": {"i": ["1", "1", "1", "1"]}}, "T": {"type": "DT_FLOAT"}, "strides": {"list": {"i": ["1", "1", "1", "1"]}}, "explicit_paddings": {"list": {}}, "padding": {"s": "VkFMSUQ="}, "epsilon": {"f": 0.0}, "data_format": {"s": "TkhXQw=="}, "use_cudnn_on_gpu": {"b": true}}}, {"name": "StatefulPartitionedCall/EfficientNetV1B0/stack_5_block3_sortcut_swish/Sigmoid", "op": "Sigmoid", "input": ["StatefulPartitionedCall/EfficientNetV1B0/stack_5_block3_sortcut_bn/FusedBatchNormV3"], "attr": {"T": {"type": "DT_FLOAT"}}}, {"name": "StatefulPartitionedCall/EfficientNetV1B0/stack_5_block3_sortcut_swish/mul", "op": "Mul", "input": ["StatefulPartitionedCall/EfficientNetV1B0/stack_5_block3_sortcut_bn/FusedBatchNormV3", "StatefulPartitionedCall/EfficientNetV1B0/stack_5_block3_sortcut_swish/Sigmoid"], "attr": {"T": {"type": "DT_FLOAT"}}}, {"name": "StatefulPartitionedCall/EfficientNetV1B0/stack_5_block3_MB_dw_/depthwise", "op": "FusedDepthwiseConv2dNative", "input": ["StatefulPartitionedCall/EfficientNetV1B0/stack_5_block3_sortcut_swish/mul", "StatefulPartitionedCall/EfficientNetV1B0/stack_5_block3_MB_dw_/depthwise_weights", "StatefulPartitionedCall/EfficientNetV1B0/stack_5_block3_MB_dw_/depthwise_bn_offset"], "attr": {"fused_ops": {"list": {"s": ["Qmlhc0FkZA=="]}}, "explicit_paddings": {"list": {}}, "strides": {"list": {"i": ["1", "1", "1", "1"]}}, "data_format": {"s": "TkhXQw=="}, "num_args": {"i": "1"}, "dilations": {"list": {"i": ["1", "1", "1", "1"]}}, "T": {"type": "DT_FLOAT"}, "padding": {"s": "U0FNRQ=="}}}, {"name": "StatefulPartitionedCall/EfficientNetV1B0/stack_5_block3_MB_dw_swish/Sigmoid", "op": "Sigmoid", "input": ["StatefulPartitionedCall/EfficientNetV1B0/stack_5_block3_MB_dw_/depthwise"], "attr": {"T": {"type": "DT_FLOAT"}}}, {"name": "StatefulPartitionedCall/EfficientNetV1B0/stack_5_block3_MB_dw_swish/mul", "op": "Mul", "input": ["StatefulPartitionedCall/EfficientNetV1B0/stack_5_block3_MB_dw_/depthwise", "StatefulPartitionedCall/EfficientNetV1B0/stack_5_block3_MB_dw_swish/Sigmoid"], "attr": {"T": {"type": "DT_FLOAT"}}}, {"name": "StatefulPartitionedCall/EfficientNetV1B0/tf.math.reduce_mean_78/Mean", "op": "Mean", "input": ["StatefulPartitionedCall/EfficientNetV1B0/stack_5_block3_MB_dw_swish/mul", "StatefulPartitionedCall/EfficientNetV1B0/tf.math.reduce_mean_78/Mean/reduction_indices"], "attr": {"keep_dims": {"b": true}, "T": {"type": "DT_FLOAT"}, "Tidx": {"type": "DT_INT32"}}}, {"name": "StatefulPartitionedCall/EfficientNetV1B0/stack_5_block3_se_1_conv/BiasAdd", "op": "_FusedConv2D", "input": ["StatefulPartitionedCall/EfficientNetV1B0/tf.math.reduce_mean_78/Mean", "StatefulPartitionedCall/EfficientNetV1B0/stack_5_block3_se_1_conv/Conv2D/ReadVariableOp", "StatefulPartitionedCall/EfficientNetV1B0/stack_5_block3_se_1_conv/BiasAdd/ReadVariableOp"], "device": "/device:CPU:0", "attr": {"explicit_paddings": {"list": {}}, "data_format": {"s": "TkhXQw=="}, "epsilon": {"f": 0.0}, "use_cudnn_on_gpu": {"b": true}, "T": {"type": "DT_FLOAT"}, "strides": {"list": {"i": ["1", "1", "1", "1"]}}, "fused_ops": {"list": {"s": ["Qmlhc0FkZA=="]}}, "dilations": {"list": {"i": ["1", "1", "1", "1"]}}, "padding": {"s": "VkFMSUQ="}, "num_args": {"i": "1"}}}, {"name": "StatefulPartitionedCall/EfficientNetV1B0/activation_156/Sigmoid", "op": "Sigmoid", "input": ["StatefulPartitionedCall/EfficientNetV1B0/stack_5_block3_se_1_conv/BiasAdd"], "attr": {"T": {"type": "DT_FLOAT"}}}, {"name": "StatefulPartitionedCall/EfficientNetV1B0/activation_156/mul", "op": "Mul", "input": ["StatefulPartitionedCall/EfficientNetV1B0/stack_5_block3_se_1_conv/BiasAdd", "StatefulPartitionedCall/EfficientNetV1B0/activation_156/Sigmoid"], "attr": {"T": {"type": "DT_FLOAT"}}}, {"name": "StatefulPartitionedCall/EfficientNetV1B0/stack_5_block3_se_2_conv/BiasAdd", "op": "_FusedConv2D", "input": ["StatefulPartitionedCall/EfficientNetV1B0/activation_156/mul", "StatefulPartitionedCall/EfficientNetV1B0/stack_5_block3_se_2_conv/Conv2D/ReadVariableOp", "StatefulPartitionedCall/EfficientNetV1B0/stack_5_block3_se_2_conv/BiasAdd/ReadVariableOp"], "device": "/device:CPU:0", "attr": {"data_format": {"s": "TkhXQw=="}, "epsilon": {"f": 0.0}, "use_cudnn_on_gpu": {"b": true}, "num_args": {"i": "1"}, "padding": {"s": "VkFMSUQ="}, "dilations": {"list": {"i": ["1", "1", "1", "1"]}}, "explicit_paddings": {"list": {}}, "strides": {"list": {"i": ["1", "1", "1", "1"]}}, "T": {"type": "DT_FLOAT"}, "fused_ops": {"list": {"s": ["Qmlhc0FkZA=="]}}}}, {"name": "StatefulPartitionedCall/EfficientNetV1B0/activation_157/Sigmoid", "op": "Sigmoid", "input": ["StatefulPartitionedCall/EfficientNetV1B0/stack_5_block3_se_2_conv/BiasAdd"], "attr": {"T": {"type": "DT_FLOAT"}}}, {"name": "StatefulPartitionedCall/EfficientNetV1B0/multiply_78/mul", "op": "Mul", "input": ["StatefulPartitionedCall/EfficientNetV1B0/stack_5_block3_MB_dw_swish/mul", "StatefulPartitionedCall/EfficientNetV1B0/activation_157/Sigmoid"], "attr": {"T": {"type": "DT_FLOAT"}}}, {"name": "StatefulPartitionedCall/EfficientNetV1B0/stack_5_block3_MB_pw_bn/FusedBatchNormV3", "op": "_FusedConv2D", "input": ["StatefulPartitionedCall/EfficientNetV1B0/multiply_78/mul", "StatefulPartitionedCall/EfficientNetV1B0/stack_5_block3_MB_pw_conv/Conv2D_weights", "StatefulPartitionedCall/EfficientNetV1B0/stack_5_block3_MB_pw_conv/Conv2D_bn_offset"], "device": "/device:CPU:0", "attr": {"num_args": {"i": "1"}, "T": {"type": "DT_FLOAT"}, "dilations": {"list": {"i": ["1", "1", "1", "1"]}}, "explicit_paddings": {"list": {}}, "fused_ops": {"list": {"s": ["Qmlhc0FkZA=="]}}, "padding": {"s": "VkFMSUQ="}, "data_format": {"s": "TkhXQw=="}, "epsilon": {"f": 0.0}, "use_cudnn_on_gpu": {"b": true}, "strides": {"list": {"i": ["1", "1", "1", "1"]}}}}, {"name": "StatefulPartitionedCall/EfficientNetV1B0/add_44/add", "op": "AddV2", "input": ["StatefulPartitionedCall/EfficientNetV1B0/add_43/add", "StatefulPartitionedCall/EfficientNetV1B0/stack_5_block3_MB_pw_bn/FusedBatchNormV3"], "attr": {"T": {"type": "DT_FLOAT"}}}, {"name": "StatefulPartitionedCall/EfficientNetV1B0/stack_6_block0_sortcut_bn/FusedBatchNormV3", "op": "_FusedConv2D", "input": ["StatefulPartitionedCall/EfficientNetV1B0/add_44/add", "StatefulPartitionedCall/EfficientNetV1B0/stack_6_block0_sortcut_conv/Conv2D_weights", "StatefulPartitionedCall/EfficientNetV1B0/stack_6_block0_sortcut_conv/Conv2D_bn_offset"], "device": "/device:CPU:0", "attr": {"use_cudnn_on_gpu": {"b": true}, "data_format": {"s": "TkhXQw=="}, "padding": {"s": "VkFMSUQ="}, "num_args": {"i": "1"}, "fused_ops": {"list": {"s": ["Qmlhc0FkZA=="]}}, "dilations": {"list": {"i": ["1", "1", "1", "1"]}}, "epsilon": {"f": 0.0}, "strides": {"list": {"i": ["1", "1", "1", "1"]}}, "explicit_paddings": {"list": {}}, "T": {"type": "DT_FLOAT"}}}, {"name": "StatefulPartitionedCall/EfficientNetV1B0/stack_6_block0_sortcut_swish/Sigmoid", "op": "Sigmoid", "input": ["StatefulPartitionedCall/EfficientNetV1B0/stack_6_block0_sortcut_bn/FusedBatchNormV3"], "attr": {"T": {"type": "DT_FLOAT"}}}, {"name": "StatefulPartitionedCall/EfficientNetV1B0/stack_6_block0_sortcut_swish/mul", "op": "Mul", "input": ["StatefulPartitionedCall/EfficientNetV1B0/stack_6_block0_sortcut_bn/FusedBatchNormV3", "StatefulPartitionedCall/EfficientNetV1B0/stack_6_block0_sortcut_swish/Sigmoid"], "attr": {"T": {"type": "DT_FLOAT"}}}, {"name": "StatefulPartitionedCall/EfficientNetV1B0/stack_6_block0_MB_dw_/depthwise", "op": "FusedDepthwiseConv2dNative", "input": ["StatefulPartitionedCall/EfficientNetV1B0/stack_6_block0_sortcut_swish/mul", "StatefulPartitionedCall/EfficientNetV1B0/stack_6_block0_MB_dw_/depthwise_weights", "StatefulPartitionedCall/EfficientNetV1B0/stack_6_block0_MB_dw_/depthwise_bn_offset"], "attr": {"explicit_paddings": {"list": {}}, "strides": {"list": {"i": ["1", "1", "1", "1"]}}, "fused_ops": {"list": {"s": ["Qmlhc0FkZA=="]}}, "data_format": {"s": "TkhXQw=="}, "T": {"type": "DT_FLOAT"}, "padding": {"s": "U0FNRQ=="}, "num_args": {"i": "1"}, "dilations": {"list": {"i": ["1", "1", "1", "1"]}}}}, {"name": "StatefulPartitionedCall/EfficientNetV1B0/stack_6_block0_MB_dw_swish/Sigmoid", "op": "Sigmoid", "input": ["StatefulPartitionedCall/EfficientNetV1B0/stack_6_block0_MB_dw_/depthwise"], "attr": {"T": {"type": "DT_FLOAT"}}}, {"name": "StatefulPartitionedCall/EfficientNetV1B0/stack_6_block0_MB_dw_swish/mul", "op": "Mul", "input": ["StatefulPartitionedCall/EfficientNetV1B0/stack_6_block0_MB_dw_/depthwise", "StatefulPartitionedCall/EfficientNetV1B0/stack_6_block0_MB_dw_swish/Sigmoid"], "attr": {"T": {"type": "DT_FLOAT"}}}, {"name": "StatefulPartitionedCall/EfficientNetV1B0/tf.math.reduce_mean_79/Mean", "op": "Mean", "input": ["StatefulPartitionedCall/EfficientNetV1B0/stack_6_block0_MB_dw_swish/mul", "StatefulPartitionedCall/EfficientNetV1B0/tf.math.reduce_mean_79/Mean/reduction_indices"], "attr": {"T": {"type": "DT_FLOAT"}, "Tidx": {"type": "DT_INT32"}, "keep_dims": {"b": true}}}, {"name": "StatefulPartitionedCall/EfficientNetV1B0/stack_6_block0_se_1_conv/BiasAdd", "op": "_FusedConv2D", "input": ["StatefulPartitionedCall/EfficientNetV1B0/tf.math.reduce_mean_79/Mean", "StatefulPartitionedCall/EfficientNetV1B0/stack_6_block0_se_1_conv/Conv2D/ReadVariableOp", "StatefulPartitionedCall/EfficientNetV1B0/stack_6_block0_se_1_conv/BiasAdd/ReadVariableOp"], "device": "/device:CPU:0", "attr": {"use_cudnn_on_gpu": {"b": true}, "strides": {"list": {"i": ["1", "1", "1", "1"]}}, "num_args": {"i": "1"}, "dilations": {"list": {"i": ["1", "1", "1", "1"]}}, "T": {"type": "DT_FLOAT"}, "explicit_paddings": {"list": {}}, "fused_ops": {"list": {"s": ["Qmlhc0FkZA=="]}}, "padding": {"s": "VkFMSUQ="}, "epsilon": {"f": 0.0}, "data_format": {"s": "TkhXQw=="}}}, {"name": "StatefulPartitionedCall/EfficientNetV1B0/activation_158/Sigmoid", "op": "Sigmoid", "input": ["StatefulPartitionedCall/EfficientNetV1B0/stack_6_block0_se_1_conv/BiasAdd"], "attr": {"T": {"type": "DT_FLOAT"}}}, {"name": "StatefulPartitionedCall/EfficientNetV1B0/activation_158/mul", "op": "Mul", "input": ["StatefulPartitionedCall/EfficientNetV1B0/stack_6_block0_se_1_conv/BiasAdd", "StatefulPartitionedCall/EfficientNetV1B0/activation_158/Sigmoid"], "attr": {"T": {"type": "DT_FLOAT"}}}, {"name": "StatefulPartitionedCall/EfficientNetV1B0/stack_6_block0_se_2_conv/BiasAdd", "op": "_FusedConv2D", "input": ["StatefulPartitionedCall/EfficientNetV1B0/activation_158/mul", "StatefulPartitionedCall/EfficientNetV1B0/stack_6_block0_se_2_conv/Conv2D/ReadVariableOp", "StatefulPartitionedCall/EfficientNetV1B0/stack_6_block0_se_2_conv/BiasAdd/ReadVariableOp"], "device": "/device:CPU:0", "attr": {"epsilon": {"f": 0.0}, "fused_ops": {"list": {"s": ["Qmlhc0FkZA=="]}}, "explicit_paddings": {"list": {}}, "T": {"type": "DT_FLOAT"}, "padding": {"s": "VkFMSUQ="}, "data_format": {"s": "TkhXQw=="}, "use_cudnn_on_gpu": {"b": true}, "num_args": {"i": "1"}, "dilations": {"list": {"i": ["1", "1", "1", "1"]}}, "strides": {"list": {"i": ["1", "1", "1", "1"]}}}}, {"name": "StatefulPartitionedCall/EfficientNetV1B0/activation_159/Sigmoid", "op": "Sigmoid", "input": ["StatefulPartitionedCall/EfficientNetV1B0/stack_6_block0_se_2_conv/BiasAdd"], "attr": {"T": {"type": "DT_FLOAT"}}}, {"name": "StatefulPartitionedCall/EfficientNetV1B0/multiply_79/mul", "op": "Mul", "input": ["StatefulPartitionedCall/EfficientNetV1B0/stack_6_block0_MB_dw_swish/mul", "StatefulPartitionedCall/EfficientNetV1B0/activation_159/Sigmoid"], "attr": {"T": {"type": "DT_FLOAT"}}}, {"name": "StatefulPartitionedCall/EfficientNetV1B0/stack_6_block0_MB_pw_bn/FusedBatchNormV3", "op": "_FusedConv2D", "input": ["StatefulPartitionedCall/EfficientNetV1B0/multiply_79/mul", "StatefulPartitionedCall/EfficientNetV1B0/stack_6_block0_MB_pw_conv/Conv2D_weights", "StatefulPartitionedCall/EfficientNetV1B0/stack_6_block0_MB_pw_conv/Conv2D_bn_offset"], "device": "/device:CPU:0", "attr": {"epsilon": {"f": 0.0}, "dilations": {"list": {"i": ["1", "1", "1", "1"]}}, "explicit_paddings": {"list": {}}, "T": {"type": "DT_FLOAT"}, "fused_ops": {"list": {"s": ["Qmlhc0FkZA=="]}}, "padding": {"s": "VkFMSUQ="}, "use_cudnn_on_gpu": {"b": true}, "strides": {"list": {"i": ["1", "1", "1", "1"]}}, "data_format": {"s": "TkhXQw=="}, "num_args": {"i": "1"}}}, {"name": "StatefulPartitionedCall/EfficientNetV1B0/post_bn/FusedBatchNormV3", "op": "_FusedConv2D", "input": ["StatefulPartitionedCall/EfficientNetV1B0/stack_6_block0_MB_pw_bn/FusedBatchNormV3", "StatefulPartitionedCall/EfficientNetV1B0/post_conv/Conv2D_weights", "StatefulPartitionedCall/EfficientNetV1B0/post_conv/Conv2D_bn_offset"], "device": "/device:CPU:0", "attr": {"padding": {"s": "VkFMSUQ="}, "use_cudnn_on_gpu": {"b": true}, "num_args": {"i": "1"}, "strides": {"list": {"i": ["1", "1", "1", "1"]}}, "dilations": {"list": {"i": ["1", "1", "1", "1"]}}, "epsilon": {"f": 0.0}, "fused_ops": {"list": {"s": ["Qmlhc0FkZA=="]}}, "T": {"type": "DT_FLOAT"}, "explicit_paddings": {"list": {}}, "data_format": {"s": "TkhXQw=="}}}, {"name": "StatefulPartitionedCall/EfficientNetV1B0/post_swish/Sigmoid", "op": "Sigmoid", "input": ["StatefulPartitionedCall/EfficientNetV1B0/post_bn/FusedBatchNormV3"], "attr": {"T": {"type": "DT_FLOAT"}}}, {"name": "StatefulPartitionedCall/EfficientNetV1B0/post_swish/mul", "op": "Mul", "input": ["StatefulPartitionedCall/EfficientNetV1B0/post_bn/FusedBatchNormV3", "StatefulPartitionedCall/EfficientNetV1B0/post_swish/Sigmoid"], "attr": {"T": {"type": "DT_FLOAT"}}}, {"name": "StatefulPartitionedCall/EfficientNetV1B0/avg_pool/Mean", "op": "Mean", "input": ["StatefulPartitionedCall/EfficientNetV1B0/post_swish/mul", "StatefulPartitionedCall/EfficientNetV1B0/avg_pool/Mean/reduction_indices"], "attr": {"T": {"type": "DT_FLOAT"}, "Tidx": {"type": "DT_INT32"}, "keep_dims": {"b": false}}}, {"name": "StatefulPartitionedCall/EfficientNetV1B0/predictions/BiasAdd", "op": "_FusedMatMul", "input": ["StatefulPartitionedCall/EfficientNetV1B0/avg_pool/Mean", "StatefulPartitionedCall/EfficientNetV1B0/predictions/MatMul/ReadVariableOp", "StatefulPartitionedCall/EfficientNetV1B0/predictions/BiasAdd/ReadVariableOp"], "device": "/device:CPU:0", "attr": {"T": {"type": "DT_FLOAT"}, "fused_ops": {"list": {"s": ["Qmlhc0FkZA=="]}}, "transpose_a": {"b": false}, "epsilon": {"f": 0.0}, "num_args": {"i": "1"}, "transpose_b": {"b": false}}}, {"name": "StatefulPartitionedCall/EfficientNetV1B0/predictions/Softmax", "op": "Softmax", "input": ["StatefulPartitionedCall/EfficientNetV1B0/predictions/BiasAdd"], "attr": {"T": {"type": "DT_FLOAT"}}}, {"name": "Identity", "op": "Identity", "input": ["StatefulPartitionedCall/EfficientNetV1B0/predictions/Softmax"], "attr": {"T": {"type": "DT_FLOAT"}}}], "library": {}, "versions": {"producer": 898}}, "weightsManifest": [{"paths": ["group1-shard1of4.bin", "group1-shard2of4.bin", "group1-shard3of4.bin", "group1-shard4of4.bin"], "weights": [{"name": "StatefulPartitionedCall/EfficientNetV1B0/tf.math.reduce_mean_64/Mean/reduction_indices", "shape": [2], "dtype": "int32"}, {"name": "StatefulPartitionedCall/EfficientNetV1B0/stack_0_block0_se_1_conv/Conv2D/ReadVariableOp", "shape": [1, 1, 32, 8], "dtype": "float32"}, {"name": "StatefulPartitionedCall/EfficientNetV1B0/stack_0_block0_se_1_conv/BiasAdd/ReadVariableOp", "shape": [8], "dtype": "float32"}, {"name": "StatefulPartitionedCall/EfficientNetV1B0/stack_0_block0_se_2_conv/Conv2D/ReadVariableOp", "shape": [1, 1, 8, 32], "dtype": "float32"}, {"name": "StatefulPartitionedCall/EfficientNetV1B0/stack_0_block0_se_2_conv/BiasAdd/ReadVariableOp", "shape": [32], "dtype": "float32"}, {"name": "StatefulPartitionedCall/EfficientNetV1B0/tf.math.reduce_mean_65/Mean/reduction_indices", "shape": [2], "dtype": "int32"}, {"name": "StatefulPartitionedCall/EfficientNetV1B0/stack_1_block0_se_1_conv/Conv2D/ReadVariableOp", "shape": [1, 1, 96, 4], "dtype": "float32"}, {"name": "StatefulPartitionedCall/EfficientNetV1B0/stack_1_block0_se_1_conv/BiasAdd/ReadVariableOp", "shape": [4], "dtype": "float32"}, {"name": "StatefulPartitionedCall/EfficientNetV1B0/stack_1_block0_se_2_conv/Conv2D/ReadVariableOp", "shape": [1, 1, 4, 96], "dtype": "float32"}, {"name": "StatefulPartitionedCall/EfficientNetV1B0/stack_1_block0_se_2_conv/BiasAdd/ReadVariableOp", "shape": [96], "dtype": "float32"}, {"name": "StatefulPartitionedCall/EfficientNetV1B0/tf.math.reduce_mean_66/Mean/reduction_indices", "shape": [2], "dtype": "int32"}, {"name": "StatefulPartitionedCall/EfficientNetV1B0/stack_1_block1_se_1_conv/Conv2D/ReadVariableOp", "shape": [1, 1, 144, 6], "dtype": "float32"}, {"name": "StatefulPartitionedCall/EfficientNetV1B0/stack_1_block1_se_1_conv/BiasAdd/ReadVariableOp", "shape": [6], "dtype": "float32"}, {"name": "StatefulPartitionedCall/EfficientNetV1B0/stack_1_block1_se_2_conv/Conv2D/ReadVariableOp", "shape": [1, 1, 6, 144], "dtype": "float32"}, {"name": "StatefulPartitionedCall/EfficientNetV1B0/stack_1_block1_se_2_conv/BiasAdd/ReadVariableOp", "shape": [144], "dtype": "float32"}, {"name": "StatefulPartitionedCall/EfficientNetV1B0/tf.math.reduce_mean_67/Mean/reduction_indices", "shape": [2], "dtype": "int32"}, {"name": "StatefulPartitionedCall/EfficientNetV1B0/stack_2_block0_se_1_conv/Conv2D/ReadVariableOp", "shape": [1, 1, 144, 6], "dtype": "float32"}, {"name": "StatefulPartitionedCall/EfficientNetV1B0/stack_2_block0_se_1_conv/BiasAdd/ReadVariableOp", "shape": [6], "dtype": "float32"}, {"name": "StatefulPartitionedCall/EfficientNetV1B0/stack_2_block0_se_2_conv/Conv2D/ReadVariableOp", "shape": [1, 1, 6, 144], "dtype": "float32"}, {"name": "StatefulPartitionedCall/EfficientNetV1B0/stack_2_block0_se_2_conv/BiasAdd/ReadVariableOp", "shape": [144], "dtype": "float32"}, {"name": "StatefulPartitionedCall/EfficientNetV1B0/tf.math.reduce_mean_68/Mean/reduction_indices", "shape": [2], "dtype": "int32"}, {"name": "StatefulPartitionedCall/EfficientNetV1B0/stack_2_block1_se_1_conv/Conv2D/ReadVariableOp", "shape": [1, 1, 240, 10], "dtype": "float32"}, {"name": "StatefulPartitionedCall/EfficientNetV1B0/stack_2_block1_se_1_conv/BiasAdd/ReadVariableOp", "shape": [10], "dtype": "float32"}, {"name": "StatefulPartitionedCall/EfficientNetV1B0/stack_2_block1_se_2_conv/Conv2D/ReadVariableOp", "shape": [1, 1, 10, 240], "dtype": "float32"}, {"name": "StatefulPartitionedCall/EfficientNetV1B0/stack_2_block1_se_2_conv/BiasAdd/ReadVariableOp", "shape": [240], "dtype": "float32"}, {"name": "StatefulPartitionedCall/EfficientNetV1B0/tf.math.reduce_mean_69/Mean/reduction_indices", "shape": [2], "dtype": "int32"}, {"name": "StatefulPartitionedCall/EfficientNetV1B0/stack_3_block0_se_1_conv/Conv2D/ReadVariableOp", "shape": [1, 1, 240, 10], "dtype": "float32"}, {"name": "StatefulPartitionedCall/EfficientNetV1B0/stack_3_block0_se_1_conv/BiasAdd/ReadVariableOp", "shape": [10], "dtype": "float32"}, {"name": "StatefulPartitionedCall/EfficientNetV1B0/stack_3_block0_se_2_conv/Conv2D/ReadVariableOp", "shape": [1, 1, 10, 240], "dtype": "float32"}, {"name": "StatefulPartitionedCall/EfficientNetV1B0/stack_3_block0_se_2_conv/BiasAdd/ReadVariableOp", "shape": [240], "dtype": "float32"}, {"name": "StatefulPartitionedCall/EfficientNetV1B0/tf.math.reduce_mean_70/Mean/reduction_indices", "shape": [2], "dtype": "int32"}, {"name": "StatefulPartitionedCall/EfficientNetV1B0/stack_3_block1_se_1_conv/Conv2D/ReadVariableOp", "shape": [1, 1, 480, 20], "dtype": "float32"}, {"name": "StatefulPartitionedCall/EfficientNetV1B0/stack_3_block1_se_1_conv/BiasAdd/ReadVariableOp", "shape": [20], "dtype": "float32"}, {"name": "StatefulPartitionedCall/EfficientNetV1B0/stack_3_block1_se_2_conv/Conv2D/ReadVariableOp", "shape": [1, 1, 20, 480], "dtype": "float32"}, {"name": "StatefulPartitionedCall/EfficientNetV1B0/stack_3_block1_se_2_conv/BiasAdd/ReadVariableOp", "shape": [480], "dtype": "float32"}, {"name": "StatefulPartitionedCall/EfficientNetV1B0/tf.math.reduce_mean_71/Mean/reduction_indices", "shape": [2], "dtype": "int32"}, {"name": "StatefulPartitionedCall/EfficientNetV1B0/stack_3_block2_se_1_conv/Conv2D/ReadVariableOp", "shape": [1, 1, 480, 20], "dtype": "float32"}, {"name": "StatefulPartitionedCall/EfficientNetV1B0/stack_3_block2_se_1_conv/BiasAdd/ReadVariableOp", "shape": [20], "dtype": "float32"}, {"name": "StatefulPartitionedCall/EfficientNetV1B0/stack_3_block2_se_2_conv/Conv2D/ReadVariableOp", "shape": [1, 1, 20, 480], "dtype": "float32"}, {"name": "StatefulPartitionedCall/EfficientNetV1B0/stack_3_block2_se_2_conv/BiasAdd/ReadVariableOp", "shape": [480], "dtype": "float32"}, {"name": "StatefulPartitionedCall/EfficientNetV1B0/tf.math.reduce_mean_72/Mean/reduction_indices", "shape": [2], "dtype": "int32"}, {"name": "StatefulPartitionedCall/EfficientNetV1B0/stack_4_block0_se_1_conv/Conv2D/ReadVariableOp", "shape": [1, 1, 480, 20], "dtype": "float32"}, {"name": "StatefulPartitionedCall/EfficientNetV1B0/stack_4_block0_se_1_conv/BiasAdd/ReadVariableOp", "shape": [20], "dtype": "float32"}, {"name": "StatefulPartitionedCall/EfficientNetV1B0/stack_4_block0_se_2_conv/Conv2D/ReadVariableOp", "shape": [1, 1, 20, 480], "dtype": "float32"}, {"name": "StatefulPartitionedCall/EfficientNetV1B0/stack_4_block0_se_2_conv/BiasAdd/ReadVariableOp", "shape": [480], "dtype": "float32"}, {"name": "StatefulPartitionedCall/EfficientNetV1B0/tf.math.reduce_mean_73/Mean/reduction_indices", "shape": [2], "dtype": "int32"}, {"name": "StatefulPartitionedCall/EfficientNetV1B0/stack_4_block1_se_1_conv/Conv2D/ReadVariableOp", "shape": [1, 1, 672, 28], "dtype": "float32"}, {"name": "StatefulPartitionedCall/EfficientNetV1B0/stack_4_block1_se_1_conv/BiasAdd/ReadVariableOp", "shape": [28], "dtype": "float32"}, {"name": "StatefulPartitionedCall/EfficientNetV1B0/stack_4_block1_se_2_conv/Conv2D/ReadVariableOp", "shape": [1, 1, 28, 672], "dtype": "float32"}, {"name": "StatefulPartitionedCall/EfficientNetV1B0/stack_4_block1_se_2_conv/BiasAdd/ReadVariableOp", "shape": [672], "dtype": "float32"}, {"name": "StatefulPartitionedCall/EfficientNetV1B0/tf.math.reduce_mean_74/Mean/reduction_indices", "shape": [2], "dtype": "int32"}, {"name": "StatefulPartitionedCall/EfficientNetV1B0/stack_4_block2_se_1_conv/Conv2D/ReadVariableOp", "shape": [1, 1, 672, 28], "dtype": "float32"}, {"name": "StatefulPartitionedCall/EfficientNetV1B0/stack_4_block2_se_1_conv/BiasAdd/ReadVariableOp", "shape": [28], "dtype": "float32"}, {"name": "StatefulPartitionedCall/EfficientNetV1B0/stack_4_block2_se_2_conv/Conv2D/ReadVariableOp", "shape": [1, 1, 28, 672], "dtype": "float32"}, {"name": "StatefulPartitionedCall/EfficientNetV1B0/stack_4_block2_se_2_conv/BiasAdd/ReadVariableOp", "shape": [672], "dtype": "float32"}, {"name": "StatefulPartitionedCall/EfficientNetV1B0/tf.math.reduce_mean_75/Mean/reduction_indices", "shape": [2], "dtype": "int32"}, {"name": "StatefulPartitionedCall/EfficientNetV1B0/stack_5_block0_se_1_conv/Conv2D/ReadVariableOp", "shape": [1, 1, 672, 28], "dtype": "float32"}, {"name": "StatefulPartitionedCall/EfficientNetV1B0/stack_5_block0_se_1_conv/BiasAdd/ReadVariableOp", "shape": [28], "dtype": "float32"}, {"name": "StatefulPartitionedCall/EfficientNetV1B0/stack_5_block0_se_2_conv/Conv2D/ReadVariableOp", "shape": [1, 1, 28, 672], "dtype": "float32"}, {"name": "StatefulPartitionedCall/EfficientNetV1B0/stack_5_block0_se_2_conv/BiasAdd/ReadVariableOp", "shape": [672], "dtype": "float32"}, {"name": "StatefulPartitionedCall/EfficientNetV1B0/tf.math.reduce_mean_76/Mean/reduction_indices", "shape": [2], "dtype": "int32"}, {"name": "StatefulPartitionedCall/EfficientNetV1B0/stack_5_block1_se_1_conv/Conv2D/ReadVariableOp", "shape": [1, 1, 1152, 48], "dtype": "float32"}, {"name": "StatefulPartitionedCall/EfficientNetV1B0/stack_5_block1_se_1_conv/BiasAdd/ReadVariableOp", "shape": [48], "dtype": "float32"}, {"name": "StatefulPartitionedCall/EfficientNetV1B0/stack_5_block1_se_2_conv/Conv2D/ReadVariableOp", "shape": [1, 1, 48, 1152], "dtype": "float32"}, {"name": "StatefulPartitionedCall/EfficientNetV1B0/stack_5_block1_se_2_conv/BiasAdd/ReadVariableOp", "shape": [1152], "dtype": "float32"}, {"name": "StatefulPartitionedCall/EfficientNetV1B0/tf.math.reduce_mean_77/Mean/reduction_indices", "shape": [2], "dtype": "int32"}, {"name": "StatefulPartitionedCall/EfficientNetV1B0/stack_5_block2_se_1_conv/Conv2D/ReadVariableOp", "shape": [1, 1, 1152, 48], "dtype": "float32"}, {"name": "StatefulPartitionedCall/EfficientNetV1B0/stack_5_block2_se_1_conv/BiasAdd/ReadVariableOp", "shape": [48], "dtype": "float32"}, {"name": "StatefulPartitionedCall/EfficientNetV1B0/stack_5_block2_se_2_conv/Conv2D/ReadVariableOp", "shape": [1, 1, 48, 1152], "dtype": "float32"}, {"name": "StatefulPartitionedCall/EfficientNetV1B0/stack_5_block2_se_2_conv/BiasAdd/ReadVariableOp", "shape": [1152], "dtype": "float32"}, {"name": "StatefulPartitionedCall/EfficientNetV1B0/tf.math.reduce_mean_78/Mean/reduction_indices", "shape": [2], "dtype": "int32"}, {"name": "StatefulPartitionedCall/EfficientNetV1B0/stack_5_block3_se_1_conv/Conv2D/ReadVariableOp", "shape": [1, 1, 1152, 48], "dtype": "float32"}, {"name": "StatefulPartitionedCall/EfficientNetV1B0/stack_5_block3_se_1_conv/BiasAdd/ReadVariableOp", "shape": [48], "dtype": "float32"}, {"name": "StatefulPartitionedCall/EfficientNetV1B0/stack_5_block3_se_2_conv/Conv2D/ReadVariableOp", "shape": [1, 1, 48, 1152], "dtype": "float32"}, {"name": "StatefulPartitionedCall/EfficientNetV1B0/stack_5_block3_se_2_conv/BiasAdd/ReadVariableOp", "shape": [1152], "dtype": "float32"}, {"name": "StatefulPartitionedCall/EfficientNetV1B0/tf.math.reduce_mean_79/Mean/reduction_indices", "shape": [2], "dtype": "int32"}, {"name": "StatefulPartitionedCall/EfficientNetV1B0/stack_6_block0_se_1_conv/Conv2D/ReadVariableOp", "shape": [1, 1, 1152, 48], "dtype": "float32"}, {"name": "StatefulPartitionedCall/EfficientNetV1B0/stack_6_block0_se_1_conv/BiasAdd/ReadVariableOp", "shape": [48], "dtype": "float32"}, {"name": "StatefulPartitionedCall/EfficientNetV1B0/stack_6_block0_se_2_conv/Conv2D/ReadVariableOp", "shape": [1, 1, 48, 1152], "dtype": "float32"}, {"name": "StatefulPartitionedCall/EfficientNetV1B0/stack_6_block0_se_2_conv/BiasAdd/ReadVariableOp", "shape": [1152], "dtype": "float32"}, {"name": "StatefulPartitionedCall/EfficientNetV1B0/avg_pool/Mean/reduction_indices", "shape": [2], "dtype": "int32"}, {"name": "StatefulPartitionedCall/EfficientNetV1B0/predictions/MatMul/ReadVariableOp", "shape": [1280, 94], "dtype": "float32"}, {"name": "StatefulPartitionedCall/EfficientNetV1B0/predictions/BiasAdd/ReadVariableOp", "shape": [94], "dtype": "float32"}, {"name": "StatefulPartitionedCall/EfficientNetV1B0/stem_conv/Conv2D_weights", "shape": [3, 3, 3, 32], "dtype": "float32"}, {"name": "StatefulPartitionedCall/EfficientNetV1B0/post_conv/Conv2D_weights", "shape": [1, 1, 320, 1280], "dtype": "float32"}, {"name": "StatefulPartitionedCall/EfficientNetV1B0/stem_conv/Conv2D_bn_offset", "shape": [32], "dtype": "float32"}, {"name": "StatefulPartitionedCall/EfficientNetV1B0/stack_0_block0_MB_dw_/depthwise_weights", "shape": [3, 3, 32, 1], "dtype": "float32"}, {"name": "StatefulPartitionedCall/EfficientNetV1B0/stack_0_block0_MB_dw_/depthwise_bn_offset", "shape": [32], "dtype": "float32"}, {"name": "StatefulPartitionedCall/EfficientNetV1B0/stack_5_block2_MB_pw_conv/Conv2D_bn_offset", "shape": [192], "dtype": "float32"}, {"name": "StatefulPartitionedCall/EfficientNetV1B0/stack_0_block0_MB_pw_conv/Conv2D_weights", "shape": [1, 1, 32, 16], "dtype": "float32"}, {"name": "StatefulPartitionedCall/EfficientNetV1B0/stack_0_block0_MB_pw_conv/Conv2D_bn_offset", "shape": [16], "dtype": "float32"}, {"name": "StatefulPartitionedCall/EfficientNetV1B0/stack_1_block0_sortcut_conv/Conv2D_weights", "shape": [1, 1, 16, 96], "dtype": "float32"}, {"name": "StatefulPartitionedCall/EfficientNetV1B0/stack_5_block3_sortcut_conv/Conv2D_weights", "shape": [1, 1, 192, 1152], "dtype": "float32"}, {"name": "StatefulPartitionedCall/EfficientNetV1B0/stack_1_block0_sortcut_conv/Conv2D_bn_offset", "shape": [96], "dtype": "float32"}, {"name": "StatefulPartitionedCall/EfficientNetV1B0/stack_1_block0_MB_dw_/depthwise_weights", "shape": [3, 3, 96, 1], "dtype": "float32"}, {"name": "StatefulPartitionedCall/EfficientNetV1B0/stack_1_block0_MB_dw_/depthwise_bn_offset", "shape": [96], "dtype": "float32"}, {"name": "StatefulPartitionedCall/EfficientNetV1B0/stack_5_block3_sortcut_conv/Conv2D_bn_offset", "shape": [1152], "dtype": "float32"}, {"name": "StatefulPartitionedCall/EfficientNetV1B0/stack_1_block0_MB_pw_conv/Conv2D_weights", "shape": [1, 1, 96, 24], "dtype": "float32"}, {"name": "StatefulPartitionedCall/EfficientNetV1B0/stack_1_block0_MB_pw_conv/Conv2D_bn_offset", "shape": [24], "dtype": "float32"}, {"name": "StatefulPartitionedCall/EfficientNetV1B0/stack_1_block1_sortcut_conv/Conv2D_weights", "shape": [1, 1, 24, 144], "dtype": "float32"}, {"name": "StatefulPartitionedCall/EfficientNetV1B0/stack_1_block1_sortcut_conv/Conv2D_bn_offset", "shape": [144], "dtype": "float32"}, {"name": "StatefulPartitionedCall/EfficientNetV1B0/stack_1_block1_MB_dw_/depthwise_weights", "shape": [3, 3, 144, 1], "dtype": "float32"}, {"name": "StatefulPartitionedCall/EfficientNetV1B0/stack_1_block1_MB_dw_/depthwise_bn_offset", "shape": [144], "dtype": "float32"}, {"name": "StatefulPartitionedCall/EfficientNetV1B0/stack_5_block3_MB_dw_/depthwise_weights", "shape": [5, 5, 1152, 1], "dtype": "float32"}, {"name": "StatefulPartitionedCall/EfficientNetV1B0/stack_1_block1_MB_pw_conv/Conv2D_weights", "shape": [1, 1, 144, 24], "dtype": "float32"}, {"name": "StatefulPartitionedCall/EfficientNetV1B0/stack_1_block1_MB_pw_conv/Conv2D_bn_offset", "shape": [24], "dtype": "float32"}, {"name": "StatefulPartitionedCall/EfficientNetV1B0/stack_2_block0_sortcut_conv/Conv2D_weights", "shape": [1, 1, 24, 144], "dtype": "float32"}, {"name": "StatefulPartitionedCall/EfficientNetV1B0/stack_5_block3_MB_dw_/depthwise_bn_offset", "shape": [1152], "dtype": "float32"}, {"name": "StatefulPartitionedCall/EfficientNetV1B0/stack_2_block0_sortcut_conv/Conv2D_bn_offset", "shape": [144], "dtype": "float32"}, {"name": "StatefulPartitionedCall/EfficientNetV1B0/stack_2_block0_MB_dw_/depthwise_weights", "shape": [5, 5, 144, 1], "dtype": "float32"}, {"name": "StatefulPartitionedCall/EfficientNetV1B0/stack_2_block0_MB_dw_/depthwise_bn_offset", "shape": [144], "dtype": "float32"}, {"name": "StatefulPartitionedCall/EfficientNetV1B0/stack_2_block0_MB_pw_conv/Conv2D_weights", "shape": [1, 1, 144, 40], "dtype": "float32"}, {"name": "StatefulPartitionedCall/EfficientNetV1B0/stack_2_block0_MB_pw_conv/Conv2D_bn_offset", "shape": [40], "dtype": "float32"}, {"name": "StatefulPartitionedCall/EfficientNetV1B0/stack_2_block1_sortcut_conv/Conv2D_weights", "shape": [1, 1, 40, 240], "dtype": "float32"}, {"name": "StatefulPartitionedCall/EfficientNetV1B0/stack_2_block1_sortcut_conv/Conv2D_bn_offset", "shape": [240], "dtype": "float32"}, {"name": "StatefulPartitionedCall/EfficientNetV1B0/stack_2_block1_MB_dw_/depthwise_weights", "shape": [5, 5, 240, 1], "dtype": "float32"}, {"name": "StatefulPartitionedCall/EfficientNetV1B0/stack_2_block1_MB_dw_/depthwise_bn_offset", "shape": [240], "dtype": "float32"}, {"name": "StatefulPartitionedCall/EfficientNetV1B0/post_conv/Conv2D_bn_offset", "shape": [1280], "dtype": "float32"}, {"name": "StatefulPartitionedCall/EfficientNetV1B0/stack_2_block1_MB_pw_conv/Conv2D_weights", "shape": [1, 1, 240, 40], "dtype": "float32"}, {"name": "StatefulPartitionedCall/EfficientNetV1B0/stack_2_block1_MB_pw_conv/Conv2D_bn_offset", "shape": [40], "dtype": "float32"}, {"name": "StatefulPartitionedCall/EfficientNetV1B0/stack_3_block0_sortcut_conv/Conv2D_weights", "shape": [1, 1, 40, 240], "dtype": "float32"}, {"name": "StatefulPartitionedCall/EfficientNetV1B0/stack_3_block0_sortcut_conv/Conv2D_bn_offset", "shape": [240], "dtype": "float32"}, {"name": "StatefulPartitionedCall/EfficientNetV1B0/stack_3_block0_MB_dw_/depthwise_weights", "shape": [3, 3, 240, 1], "dtype": "float32"}, {"name": "StatefulPartitionedCall/EfficientNetV1B0/stack_3_block0_MB_dw_/depthwise_bn_offset", "shape": [240], "dtype": "float32"}, {"name": "StatefulPartitionedCall/EfficientNetV1B0/stack_3_block0_MB_pw_conv/Conv2D_weights", "shape": [1, 1, 240, 80], "dtype": "float32"}, {"name": "StatefulPartitionedCall/EfficientNetV1B0/stack_3_block0_MB_pw_conv/Conv2D_bn_offset", "shape": [80], "dtype": "float32"}, {"name": "StatefulPartitionedCall/EfficientNetV1B0/stack_3_block1_sortcut_conv/Conv2D_weights", "shape": [1, 1, 80, 480], "dtype": "float32"}, {"name": "StatefulPartitionedCall/EfficientNetV1B0/stack_3_block1_sortcut_conv/Conv2D_bn_offset", "shape": [480], "dtype": "float32"}, {"name": "StatefulPartitionedCall/EfficientNetV1B0/stack_3_block1_MB_dw_/depthwise_weights", "shape": [3, 3, 480, 1], "dtype": "float32"}, {"name": "StatefulPartitionedCall/EfficientNetV1B0/stack_3_block1_MB_dw_/depthwise_bn_offset", "shape": [480], "dtype": "float32"}, {"name": "StatefulPartitionedCall/EfficientNetV1B0/stack_5_block3_MB_pw_conv/Conv2D_weights", "shape": [1, 1, 1152, 192], "dtype": "float32"}, {"name": "StatefulPartitionedCall/EfficientNetV1B0/stack_3_block1_MB_pw_conv/Conv2D_weights", "shape": [1, 1, 480, 80], "dtype": "float32"}, {"name": "StatefulPartitionedCall/EfficientNetV1B0/stack_5_block3_MB_pw_conv/Conv2D_bn_offset", "shape": [192], "dtype": "float32"}, {"name": "StatefulPartitionedCall/EfficientNetV1B0/stack_3_block1_MB_pw_conv/Conv2D_bn_offset", "shape": [80], "dtype": "float32"}, {"name": "StatefulPartitionedCall/EfficientNetV1B0/stack_3_block2_sortcut_conv/Conv2D_weights", "shape": [1, 1, 80, 480], "dtype": "float32"}, {"name": "StatefulPartitionedCall/EfficientNetV1B0/stack_3_block2_sortcut_conv/Conv2D_bn_offset", "shape": [480], "dtype": "float32"}, {"name": "StatefulPartitionedCall/EfficientNetV1B0/stack_3_block2_MB_dw_/depthwise_weights", "shape": [3, 3, 480, 1], "dtype": "float32"}, {"name": "StatefulPartitionedCall/EfficientNetV1B0/stack_3_block2_MB_dw_/depthwise_bn_offset", "shape": [480], "dtype": "float32"}, {"name": "StatefulPartitionedCall/EfficientNetV1B0/stack_6_block0_sortcut_conv/Conv2D_weights", "shape": [1, 1, 192, 1152], "dtype": "float32"}, {"name": "StatefulPartitionedCall/EfficientNetV1B0/stack_3_block2_MB_pw_conv/Conv2D_weights", "shape": [1, 1, 480, 80], "dtype": "float32"}, {"name": "StatefulPartitionedCall/EfficientNetV1B0/stack_3_block2_MB_pw_conv/Conv2D_bn_offset", "shape": [80], "dtype": "float32"}, {"name": "StatefulPartitionedCall/EfficientNetV1B0/stack_4_block0_sortcut_conv/Conv2D_weights", "shape": [1, 1, 80, 480], "dtype": "float32"}, {"name": "StatefulPartitionedCall/EfficientNetV1B0/stack_6_block0_sortcut_conv/Conv2D_bn_offset", "shape": [1152], "dtype": "float32"}, {"name": "StatefulPartitionedCall/EfficientNetV1B0/stack_4_block0_sortcut_conv/Conv2D_bn_offset", "shape": [480], "dtype": "float32"}, {"name": "StatefulPartitionedCall/EfficientNetV1B0/stack_4_block0_MB_dw_/depthwise_weights", "shape": [5, 5, 480, 1], "dtype": "float32"}, {"name": "StatefulPartitionedCall/EfficientNetV1B0/stack_4_block0_MB_dw_/depthwise_bn_offset", "shape": [480], "dtype": "float32"}, {"name": "StatefulPartitionedCall/EfficientNetV1B0/stack_4_block0_MB_pw_conv/Conv2D_weights", "shape": [1, 1, 480, 112], "dtype": "float32"}, {"name": "StatefulPartitionedCall/EfficientNetV1B0/stack_4_block0_MB_pw_conv/Conv2D_bn_offset", "shape": [112], "dtype": "float32"}, {"name": "StatefulPartitionedCall/EfficientNetV1B0/stack_4_block1_sortcut_conv/Conv2D_weights", "shape": [1, 1, 112, 672], "dtype": "float32"}, {"name": "StatefulPartitionedCall/EfficientNetV1B0/stack_6_block0_MB_dw_/depthwise_weights", "shape": [3, 3, 1152, 1], "dtype": "float32"}, {"name": "StatefulPartitionedCall/EfficientNetV1B0/stack_4_block1_sortcut_conv/Conv2D_bn_offset", "shape": [672], "dtype": "float32"}, {"name": "StatefulPartitionedCall/EfficientNetV1B0/stack_4_block1_MB_dw_/depthwise_weights", "shape": [5, 5, 672, 1], "dtype": "float32"}, {"name": "StatefulPartitionedCall/EfficientNetV1B0/stack_4_block1_MB_dw_/depthwise_bn_offset", "shape": [672], "dtype": "float32"}, {"name": "StatefulPartitionedCall/EfficientNetV1B0/stack_6_block0_MB_dw_/depthwise_bn_offset", "shape": [1152], "dtype": "float32"}, {"name": "StatefulPartitionedCall/EfficientNetV1B0/stack_4_block1_MB_pw_conv/Conv2D_weights", "shape": [1, 1, 672, 112], "dtype": "float32"}, {"name": "StatefulPartitionedCall/EfficientNetV1B0/stack_4_block1_MB_pw_conv/Conv2D_bn_offset", "shape": [112], "dtype": "float32"}, {"name": "StatefulPartitionedCall/EfficientNetV1B0/stack_4_block2_sortcut_conv/Conv2D_weights", "shape": [1, 1, 112, 672], "dtype": "float32"}, {"name": "StatefulPartitionedCall/EfficientNetV1B0/stack_4_block2_sortcut_conv/Conv2D_bn_offset", "shape": [672], "dtype": "float32"}, {"name": "StatefulPartitionedCall/EfficientNetV1B0/stack_4_block2_MB_dw_/depthwise_weights", "shape": [5, 5, 672, 1], "dtype": "float32"}, {"name": "StatefulPartitionedCall/EfficientNetV1B0/stack_4_block2_MB_dw_/depthwise_bn_offset", "shape": [672], "dtype": "float32"}, {"name": "StatefulPartitionedCall/EfficientNetV1B0/stack_4_block2_MB_pw_conv/Conv2D_weights", "shape": [1, 1, 672, 112], "dtype": "float32"}, {"name": "StatefulPartitionedCall/EfficientNetV1B0/stack_4_block2_MB_pw_conv/Conv2D_bn_offset", "shape": [112], "dtype": "float32"}, {"name": "StatefulPartitionedCall/EfficientNetV1B0/stack_5_block0_sortcut_conv/Conv2D_weights", "shape": [1, 1, 112, 672], "dtype": "float32"}, {"name": "StatefulPartitionedCall/EfficientNetV1B0/stack_5_block0_sortcut_conv/Conv2D_bn_offset", "shape": [672], "dtype": "float32"}, {"name": "StatefulPartitionedCall/EfficientNetV1B0/stack_5_block0_MB_dw_/depthwise_weights", "shape": [5, 5, 672, 1], "dtype": "float32"}, {"name": "StatefulPartitionedCall/EfficientNetV1B0/stack_5_block0_MB_dw_/depthwise_bn_offset", "shape": [672], "dtype": "float32"}, {"name": "StatefulPartitionedCall/EfficientNetV1B0/stack_5_block0_MB_pw_conv/Conv2D_weights", "shape": [1, 1, 672, 192], "dtype": "float32"}, {"name": "StatefulPartitionedCall/EfficientNetV1B0/stack_5_block0_MB_pw_conv/Conv2D_bn_offset", "shape": [192], "dtype": "float32"}, {"name": "StatefulPartitionedCall/EfficientNetV1B0/stack_5_block1_sortcut_conv/Conv2D_weights", "shape": [1, 1, 192, 1152], "dtype": "float32"}, {"name": "StatefulPartitionedCall/EfficientNetV1B0/stack_5_block1_sortcut_conv/Conv2D_bn_offset", "shape": [1152], "dtype": "float32"}, {"name": "StatefulPartitionedCall/EfficientNetV1B0/stack_5_block1_MB_dw_/depthwise_weights", "shape": [5, 5, 1152, 1], "dtype": "float32"}, {"name": "StatefulPartitionedCall/EfficientNetV1B0/stack_5_block1_MB_dw_/depthwise_bn_offset", "shape": [1152], "dtype": "float32"}, {"name": "StatefulPartitionedCall/EfficientNetV1B0/stack_5_block1_MB_pw_conv/Conv2D_weights", "shape": [1, 1, 1152, 192], "dtype": "float32"}, {"name": "StatefulPartitionedCall/EfficientNetV1B0/stack_6_block0_MB_pw_conv/Conv2D_weights", "shape": [1, 1, 1152, 320], "dtype": "float32"}, {"name": "StatefulPartitionedCall/EfficientNetV1B0/stack_5_block1_MB_pw_conv/Conv2D_bn_offset", "shape": [192], "dtype": "float32"}, {"name": "StatefulPartitionedCall/EfficientNetV1B0/stack_5_block2_sortcut_conv/Conv2D_weights", "shape": [1, 1, 192, 1152], "dtype": "float32"}, {"name": "StatefulPartitionedCall/EfficientNetV1B0/stack_5_block2_sortcut_conv/Conv2D_bn_offset", "shape": [1152], "dtype": "float32"}, {"name": "StatefulPartitionedCall/EfficientNetV1B0/stack_5_block2_MB_dw_/depthwise_weights", "shape": [5, 5, 1152, 1], "dtype": "float32"}, {"name": "StatefulPartitionedCall/EfficientNetV1B0/stack_5_block2_MB_dw_/depthwise_bn_offset", "shape": [1152], "dtype": "float32"}, {"name": "StatefulPartitionedCall/EfficientNetV1B0/stack_6_block0_MB_pw_conv/Conv2D_bn_offset", "shape": [320], "dtype": "float32"}, {"name": "StatefulPartitionedCall/EfficientNetV1B0/stack_5_block2_MB_pw_conv/Conv2D_weights", "shape": [1, 1, 1152, 192], "dtype": "float32"}]}]}